examples/classifier_compression/simplenet_cifar.pth.tar (torch_old, 499438 bytes, 20 tensors)

module.conv1.weight f4 [6, 3, 5, 5]
-0.07495925 -0.58142316 -0.6251582 -0.4325467 -0.3183486 0.6381601 0.7390984 1.0615064
1.1581147 0.62598455 0.18279223 0.04174224 0.021294998 0.046196617 -0.036500372 0.0716766
0.10703758 -0.055435 -0.07819258 -0.05421134 -0.2985149 -0.3244206 -0.44718483 -0.4398884
-0.5250041 -0.29348922 -0.14420843 -0.15562473 -0.30103618 0.003947509 -0.090154946 0.6690301
0.98539484 0.68311167 0.40455857 -0.5189724 -0.17564121 -0.5174217 -0.7930391 -0.56190157
-0.10641288 0.041684575 -0.2796662 -0.2587619 -0.02264893 -0.08941048 0.23426983 0.18443725
0.3325874 0.22070757 0.073195346 -0.18457253 -0.24817729 -0.294295 -0.0039218464 0.12733853
0.24325639 0.33894524 0.35329512 0.2556371 -0.28035796 -0.515736 -0.5982441 -0.4104545
-0.43663624 0.28265613 0.09572555 0.014948301 0.22611341 0.16873063 0.122254685 0.09728282
0.1501852 0.3404295 0.13444193 0.12277354 0.058266874 0.157787 0.067661844 0.47607377
0.06189144 -0.3208317 -0.19259512 -0.20742118 0.12790598 -0.04031329 -0.56633925 -0.6636345
-0.545775 0.023910018 0.031118786 -0.39629447 -0.65866035 -0.44050333 0.15114102 0.36485565
0.06512195 -0.13472448 0.0060450435 0.4920532 0.039362494 -0.10409558 -0.24604632 -0.22659543
-0.27979505 0.058276396 0.13466239 0.053787466 -0.019773168 -0.13599636 0.033257097 0.33018672
0.25952372 0.27967912 -0.086514875 0.06430843 0.171799 0.27064154 0.24260032 -0.1644277
-0.18246214 -0.13236265 0.0149723645 -0.19455536 -0.31974438 -0.051555805 -0.025891742 0.03937717
-0.004025603 -0.024352001 -0.14344598 0.23941252 0.37785938 0.42504704 0.019741692 -0.025714772
0.48677737 0.43021894 0.45125407 -0.08900972 -0.15034588 0.35575813 0.46839413 0.4499822
-0.16422042 -0.3373556 0.05150712 0.08650373 0.14555897 -0.21637392 -0.046713192 0.4972023
0.19923194 -0.058146432 -0.16010079 0.45744082 0.099335544 -0.503523 -0.2801408 0.10431471
0.30093893 -0.6964077 -0.310661 0.37770528 0.33201814 -0.39536658 -0.42144024 0.5187868
0.5087436 0.0035912048 -0.2397009 0.3762897 0.3804318 -0.012606153 -0.118874654 -0.13229036
0.2567456 -0.06791785 -0.17664659 -0.15139905 0.32141846 0.05326656 -0.5134379 -0.083883666
0.21864793 0.21606638 -0.7960507 -0.44765604 0.28506353 0.22117437 -0.40187427 -0.5350571
0.39447734 0.3362664 0.004338042 -0.41103727 0.14849435 0.054018248 -0.14062822 -0.110033505
-0.17342725 0.18434642 0.041418023 -0.12312223 -0.05972584 0.30850127 0.08028518 -0.46944296
-0.1729791 0.22473231 0.20062302 -0.67507136 -0.26152372 0.49407217 0.22210817 -0.39554983
-0.43466368 0.47354445 0.35249612 0.037814762 -0.11606197 0.25872692 0.2989737 0.102129735
0.033900447 -0.14114706 -0.2618134 -0.40695947 0.8947166 -0.17272966 0.29834384 0.022753567
-0.75601614 -0.37827057 0.32849866 -0.17879093 1.0643812 0.9811462 -1.6959184 -0.6958826
0.1281117 -0.62333006 0.03422887 0.67461383 0.1762571 0.01787862 -0.0776492 0.08149329
0.3975763 -0.066010155 -0.016986879 -0.075547494 -0.31817925 0.8408545 -0.09313079 0.40505672
00000000: 3c84 99bd 26d8 14bf 5e0a 20bf c376 ddbe
00000010: 96fe a2be 765e 233f 8e35 3d3f 71df 873f
00000020: 1a3d 943f 8640 203f e32d 3b3e e9f9 2a3d
00000030: d972 ae3c aa38 3d3d 6a81 15bd 2ecb 923d
00000040: 8536 db3d d00f 63bd 6e23 a0bd b60c 5ebd
00000050: f2d6 98be 751a a6be 69f5 e4be 0d39 e1be
00000060: ab66 06bf 3844 96be 60ab 13be 175c 1fbe
00000070: 6a21 9abe 1b5a 813b 28a3 b8bd 8e45 2b3f
00000080: d642 7c3f 68e0 2e3f 4d22 cf3e 60db 04bf
00000090: 4adb 33be c075 04bf 9c04 4bbf c8d8 0fbf
000000a0: ffee d9bd 72bd 2a3d 6830 8fbe 717c 84be
000000b0: 408a b9bc d71c b7bd 6ee4 6f3e 1edd 3c3e
000000c0: e548 aa3e 2a01 623e 71e7 953d 9500 3dbe
000000d0: 3022 7ebe d6ad 96be d582 80bb 0865 023e
000000e0: 3418 793e 3b8a ad3e 19e3 b43e dee2 823e
000000f0: 148b 8fbe 4607 04bf 8626 19bf 1827 d2be
00000100: c98e dfbe 4eb8 903e c20b c43d b8e9 743c
00000110: 468a 673e b9c7 2c3e aa60 fa3d 373c c73d
00000120: 26ca 193e c74c ae3e 25ab 093e b270 fb3d
00000130: 3fa9 6e3d ea92 213e 4b92 8a3d f1bf f33e
00000140: e181 7d3d 0d44 a4be a837 45be 3866 54be
00000150: c9f9 023e 8c1f 25bd 9cfb 10bf f3e3 29bf
00000160: e9b7 0bbf f1de c33c d3ec fe3c 1ce7 cabe
00000170: f79d 28bf a789 e1be b6c4 1a3e 5cce ba3e
00000180: a85e 853d 37f5 09be 8015 c63b 66ee fb3e
00000190: 913a 213d 1030 d5bd 91f3 7bbe a208 68be
000001a0: 4c41 8fbe 3bb3 6e3d f0e4 093e 3f50 5c3d
000001b0: 57fb a1bc a142 0bbe 9838 083d 3c0e a93e
000001c0: 4be0 843e 1a32 8f3e b62e b1bd 23b4 833d
000001d0: 14ec 2f3e 8791 8a3e 386c 783e bc5f 28be
000001e0: 5bd7 3abe 138a 07be a64e 753c 8539 47be
000001f0: 89b5 a3be 2e2c 53bd eb1a d4bc f549 213d
00000200: 35e9 83bb d97d c7bc 81e3 12be 8e28 753e
00000210: c976 c13e c49f d93e 54b9 a13c c9a7 d2bc
00000220: e23a f93e a845 dc3e c60a e73e ba4a b6bd
00000230: 45f4 19be ee25 b63e 5bd1 ef3e 1164 e63e
00000240: 6629 28be e0b9 acbe 21f9 523d de28 b13d
00000250: 690d 153e 2091 5dbe 5556 3fbd 4d91 fe3e
00000260: 7503 4c3e f42a 6ebd 76f1 23be af35 ea3e
00000270: 6f70 cb3d e2e6 00bf 9d6e 8fbe f3a2 d53d
00000280: ab14 9a3e c647 32bf f50e 9fbe 9662 c13e
00000290: 48fe a93e 7d6d cabe 04c7 d7be 36cf 043f
000002a0: 053d 023f 6b5a 6b3b 2774 75be 0ba9 c03e
000002b0: f5c7 c23e 0a8a 4ebc 8e74 f3bd 2077 07be
000002c0: 2974 833e 8418 8bbd d8e2 34be 5a08 1bbe
000002d0: f690 a43e 092e 5a3d ab70 03bf 33cb abbd
000002e0: 3ee5 5f3e 8140 5d3e fbc9 4bbf 2c33 e5be
000002f0: d9f3 913e 897b 623e 77c2 cdbe 81f9 08bf
00000300: eff8 c93e 1c2b ac3e 2226 8e3b 7a73 d2be
00000310: e70e 183e 3d42 5d3d d800 10be 3f59 e1bd
00000320: ea96 31be 4fc5 3c3e f2a5 293d 8227 fcbd
00000330: 15a3 74bd e1f3 9d3e 8e6c a43d d45a f0be
00000340: 6f21 31be 3a20 663e 1f70 4d3e 7ad1 2cbf
00000350: 70e6 85be 07f7 fc3e 5370 633e 8285 cabe
00000360: 3d8c debe 6b74 f23e 5f7a b43e a7e3 1a3d
00000370: e6b1 edbd db77 843e 1513 993e 6529 d13d
00000380: 32db 0a3d db88 10be 680c 86be fe5c d0be
00000390: 260c 653f 0be0 30be 86c0 983e b065 ba3c
000003a0: 468a 41bf aeac c1be fa30 a83e f814 37be
000003b0: a53d 883f 662c 7b3f db13 d9bf 5d25 32bf
000003c0: b72f 033e 8f92 1fbf 9233 0c3d 7eb3 2c3f
000003d0: be7c 343e 2f76 923c 8b06 9fbd f4e5 a63d
000003e0: 1f8f cb3e 5530 87bd 1128 8bbc a5b8 9abd
000003f0: 64e8 a2be 3e42 573f 5bbb bebd 9863 cf3e

module.conv1.bias f4 [6]
-0.23101674 0.76484495 -0.034218747 -0.016208366 0.7005947 -0.059614304
00000000: a78f 6cbe e1cc 433f f528 0cbd 68c7 84bc
00000010: 2d5a 333f 212e 74bd

module.conv2.weight f4 [16, 6, 5, 5]
0.06973196 -0.16199134 -0.036560614 0.057476643 0.060209855 -0.28677654 -0.3849982 -0.14498144
-0.03807188 -0.11400024 -0.4324525 -0.4074387 -0.11422669 0.02806939 -0.059828103 -0.095569685
-0.1314879 0.047672454 0.05396311 0.08448324 0.15390559 0.051520374 0.069870345 0.03427427
-0.026014263 0.084555574 -0.038664218 -0.04938733 -0.0036682868 -0.028016897 0.06022085 0.07138489
0.059606414 -0.077889234 -0.03907169 -0.12006173 0.08039642 0.03081124 -0.040466942 -0.10902931
0.023505738 0.08856062 0.011170255 -0.01549044 -0.1127843 0.23697121 0.09870339 0.113622576
0.015151197 -0.044232532 -0.17025115 -0.21865955 0.12697132 0.15245004 -0.19019854 -0.31321043
-0.0037345064 0.24597022 0.040284343 -0.038438056 0.005019856 0.27023986 0.29236192 0.15045005
0.03150169 0.36159652 0.363478 0.15128484 -0.0066326936 -0.05445035 0.3076817 0.10393417
0.1495052 -0.0012578765 -0.22548425 -0.33013958 -0.3377 -0.27352425 -0.29444948 -0.3677693
-0.2550815 -0.4027785 -0.29652232 -0.27220085 -0.32369122 0.10242607 -0.23021878 -0.21628188
-0.16526054 -0.21390356 0.30515194 0.049763292 -0.08002309 -0.08486658 -0.1141192 0.30914858
0.18146305 0.129874 0.08416538 0.005823677 -0.116771825 0.016507559 -0.03039707 -0.10789173
0.1216722 0.07312313 0.17248808 0.015447051 -0.012662713 0.14432806 0.012306451 0.024366437
-0.03665021 0.0061760186 0.07865274 -0.12223014 -0.13036379 -0.1632007 -0.21590233 -0.15262835
-0.057894226 0.083587065 0.029048674 -0.08372912 0.017672734 -0.23665646 -0.113550596 -0.089735106
0.060198486 0.09331708 -0.23989828 -0.2391448 -0.18796164 -0.03420274 -0.048532486 -0.17704353
-0.25866094 -0.12556419 -0.06487714 0.04358821 0.1756398 -0.029065242 0.103988335 0.05728992
0.09497415 0.29176733 0.23542859 0.21741177 0.14423728 0.027663933 0.07459252 -0.16262901
-0.024255035 0.20248039 0.016049942 0.055777814 -0.17847295 -0.16663766 0.05190017 0.19292533
-0.11314901 -0.23525755 -0.23322201 -0.21867684 -0.083637916 -0.049177453 -0.21662836 -0.16123278
-0.19140436 -0.18845874 0.035847448 -0.09861725 -0.06760266 -0.019603593 -0.055034682 -0.010737733
0.0057203844 0.19023743 0.06805232 -0.00830811 -0.15832295 -0.16450553 0.055682316 0.17235598
-0.07396382 -0.026216876 -0.23250262 -0.08286753 0.1838851 -0.048260376 0.06695894 -0.19078721
-0.08282788 0.1779559 0.22337632 -0.017112955 -0.18266594 -0.14740805 0.053843405 0.24167126
0.010375568 0.074949436 -0.012355067 -0.083001204 0.082318 0.042754516 0.12679029 0.19341767
-0.2648945 -0.20705079 0.018531477 0.05808169 0.3246163 0.017439844 -0.52351576 0.024125399
0.0053593386 0.18862584 0.19099289 -0.32442525 0.047424477 0.11722318 0.17150907 0.15959574
-0.057970744 -0.0893494 0.104073964 0.316441 0.13721962 0.17073014 -0.2906224 -0.50369895
0.055254936 0.5008108 0.12929599 -0.12385401 -0.5659396 -0.75160086 0.29091242 0.2989473
-0.050926242 -0.074734405 -0.6412263 -0.31412578 0.27586076 -0.09373054 0.09974598 0.05012764
-0.16577692 0.17515005 -0.31958368 -0.26253155 -0.07767637 0.38852006 0.30242696 -0.15749508
00000000: a1cf 8e3d 0fe1 25be 95c0 15bd a16c 6b3d
00000010: 9c9e 763d 60d4 92be 7c1e c5be 0476 14be
00000020: 42f1 1bbd f578 e9bd 6a6a ddbe ce9b d0be
00000030: afef e9bd c7f1 e53c 500e 75bd 0aba c3bd
00000040: c4a4 06be 3144 433d 6c08 5d3d 8d05 ad3d
00000050: 6d99 1d3e 0707 533d 2f18 8f3d 2d63 0c3d
00000060: dd1b d5bc 792b ad3d 5f5e 1ebd 5e4a 4abd
00000070: a467 70bb b183 e5bc 23aa 763d 3e32 923d
00000080: db25 743d 6484 9fbd a309 20bd ede2 f5bd
00000090: e1a6 a43d db67 fc3c aac0 25bd c24a dfbd
000000a0: 1b8f c03c 455f b53d 7203 373c 9dcb 7dbc
000000b0: 75fb e6bd 95a8 723e 0125 ca3d f4b2 e83d
000000c0: ba3c 783c 2c2d 35bd 5156 2ebe 4ae8 5fbe
000000d0: c504 023e dd1b 1c3e 68c3 42be 1e5d a0be
000000e0: 9fbe 74bb 9edf 7b3e 3201 253d 3971 1dbd
000000f0: 9b7d a43b e15c 8a3e 76b0 953e 940f 1a3e
00000100: eb07 013d 2e23 b93e ca19 ba3e 6aea 1a3e
00000110: 1157 d9bb 5507 5fbd 7588 9d3e 70db d43d
00000120: e417 193e 55df a4ba 58e5 66be 0e08 a9be
00000130: 04e7 acbe 5f0b 8cbe 15c2 96be 424c bcbe
00000140: 0b9a 82be fc38 cebe c6d1 97be e95d 8bbe
00000150: dbba a5be c2c4 d13d 79be 6bbe ff78 5dbe
00000160: 0f3a 29be 8909 5bbe e03c 9c3e 98d4 4b3d
00000170: 25e3 a3bd 88ce adbd 54b7 e9bd b948 9e3e
00000180: 73d1 393e b1fd 043e e65e ac3d 8bd4 be3b
00000190: 1126 efbd dc3a 873c 4703 f9bc 57f6 dcbd
000001a0: 462f f93d 94c1 953d b7a0 303e a115 7d3c
000001b0: 4577 4fbc bcca 133e ffa0 493c 1f9c c73c
000001c0: 881e 16bd 3360 ca3b b014 a13d cc53 fabd
000001d0: 167e 05be 161e 27be 8015 5dbe 9b4a 1cbe
000001e0: 7f22 6dbd b22f ab3d 7cf7 ed3c 2c7a abbd
000001f0: 69c6 903c 1256 72be 378d e8bd 0ac7 b7bd
00000200: b092 763d 061d bf3d e5a7 75be 60e2 74be
00000210: 0479 40be 2c18 0cbd 00ca 46bd e64a 35be
00000220: 356f 84be e693 00be 4ede 84bd 8d89 323d
00000230: ebda 333e 3b1a eebc d6f7 d43d d6a8 6a3d
00000240: cf81 c23d 8762 953e 3114 713e 31a1 5e3e
00000250: f0b2 133e 799f e23c f7c3 983d 3888 26be
00000260: 7fb2 c6bc 0557 4f3e 2b7b 833c 4777 643d
00000270: 9dc1 36be 10a3 2abe 4695 543d 388e 453e
00000280: abba e7bd 5be7 70be c0d1 6ebe d2ec 5fbe
00000290: 5b4a abbd 4c6e 49bd d3d3 5dbe 351a 25be
000002a0: 81ff 43be 54fb 40be c6d4 123d d7f7 c9bd
000002b0: 4373 8abd b797 a0bc 0c6c 61bd 51ed 2fbc
000002c0: 1072 bb3b 9acd 423e 045f 8b3d bd1e 08bc
000002d0: 691f 22be 2374 28be 2413 643d 167e 303e
000002e0: 587a 97bd c6c4 d6bc 2b15 6ebe 74b6 a9bd
000002f0: 604c 3c3e acac 45bd c521 893d b95d 43be
00000300: aaa1 a9bd 123a 363e c3bc 643e 7830 8cbc
00000310: c80c 3bbe 23f2 16be e78a 5c3d ac78 773e
00000320: 49fe 293c 177f 993d e86c 4abc 89fc a9bd
00000330: 5796 a83d 5c1f 2f3d 50d5 013e 480f 463e
00000340: 40a0 87be 1f05 54be 53cf 973c 11e7 6d3d
00000350: 1c34 a63e 01de 8e3c 2105 06bf a1a2 c53c
00000360: 649d af3b 2227 413e a493 433e 111b a6be
00000370: 2b40 423d b512 f03d 13a0 2f3e 116d 233e
00000380: bb72 6dbd d1fc b6bd bb24 d53d 8e04 a23e
00000390: 4d83 0c3e e2d3 2e3e 76cc 94be 6af2 00bf
000003a0: 0053 623d 2335 003f 2b66 043e 2ca7 fdbd
000003b0: 6be1 10bf ea68 40bf 79f2 943e 9f0f 993e
000003c0: 0998 50bd 5a0e 99bd 6827 24bf 18d5 a0be
000003d0: 9f3d 8d3e ccf5 bfbd 9f47 cc3d a452 4d3d
000003e0: 6dc1 29be 895a 333e 79a0 a3be 896a 86be
000003f0: ca14 9fbd 1aec c63e b5d7 9a3e 6446 21be

module.conv2.bias f4 [16]
0.99469966 0.10507365 -0.61770856 0.22933468 -1.1761032 0.77892786 1.1169469 -2.0634048
0.44889772 0.5838152 -0.7053602 -0.49123147 0.6844838 0.04946273 1.2978473 0.22919752
00000000: a3a4 7e3f db30 d73d 2622 1ebf b6d6 6a3e
00000010: 8d8a 96bf d167 473f 1ef8 8e3f d30e 04c0
00000020: ecd5 e53e ea74 153f 7c92 34bf b182 fbbe
00000030: 553a 2f3f 6e99 4a3d dc1f a63f c1b2 6a3e

module.fc1.weight f4 [120, 400]
0.02196862 -0.015719984 -0.052647475 -0.010095908 -0.01879389 0.060590055 0.04467975 0.044776674
0.07202861 0.06520419 0.04052026 0.028846502 0.02379073 0.009624451 -0.0113495095 0.0028558732
-0.022128545 0.037252307 -0.034704883 -0.048427947 0.025837012 0.005766561 0.0101557225 -0.0062976964
-0.02150377 0.047718283 0.10394053 0.013422862 0.09107247 0.052271828 0.01881146 -0.023631385
-0.046913445 0.03397194 0.045679238 -0.017582739 -0.009131248 -0.10407841 -0.012600186 0.009683457
0.061877668 -0.018880477 -0.039586134 0.033503413 -0.005825395 0.027351439 -0.022009088 -0.08333051
-0.028678663 0.030021593 -0.11324552 -0.043313276 0.019545943 0.040829573 -0.059453182 -0.029802449
-0.03367913 0.043432377 0.070049636 -0.058104526 -0.059905343 -0.07490497 0.014113328 0.023428174
-0.009605298 -0.03021583 0.047266945 0.019669652 0.019097688 -0.011017952 0.043899026 0.12751044
0.097805455 0.046638295 0.017940808 -0.044682793 -0.03144196 0.02720011 -0.017974135 0.02722364
-0.0051667714 -0.04279696 -0.021260872 -0.018751718 -0.019247357 0.06510154 -0.05011804 -0.12451272
-0.043617826 0.010167182 0.034128726 -0.043923665 -0.043714482 0.020943223 0.0048418646 0.10040878
0.020413855 0.0071397396 0.063990764 0.08030209 0.0071844948 -0.006234154 -0.055345602 -0.009262288
0.027542446 -0.021244114 -0.04278716 0.03319273 0.027816387 -0.005944482 -0.017254028 -0.040899653
-0.02404131 -0.017650785 -0.036202036 -0.018401004 -0.022000939 -0.011988271 0.025092466 -0.046198215
0.015093847 -0.00823148 0.04731836 0.043524913 0.000618573 -0.012562616 0.00093756284 -0.05605032
0.030480044 0.03611704 0.010860942 0.032777183 0.06827044 0.0013553827 -0.028504273 -0.001346063
0.107978486 0.1239848 0.03799647 -0.01089457 0.00863762 -0.06273566 -0.040915556 0.011125606
-0.029872773 -0.06837058 -0.064504236 -0.027968248 -0.005580602 0.0029550702 -0.08246321 -0.051450696
0.08116386 0.09693737 0.036529526 -0.075176515 -0.044804767 0.057864383 0.06441758 -0.006281989
-0.069260366 -0.049199067 0.019097252 0.05278991 -0.009975864 -0.030835424 -0.023843285 0.075850084
0.11720412 0.0073707593 -0.08606092 0.01759211 0.052208293 0.06092491 0.0071193427 0.0063474197
-0.10855548 -0.07721794 -0.08653009 -0.051598825 -0.041301537 -0.049388334 -0.0640932 -0.09830045
-0.030635556 -0.065619424 -0.067922935 -0.037674602 -0.08492978 -0.024418375 0.03515455 0.033450007
0.012972143 0.027028492 0.005953734 0.014145576 0.030814998 0.0026254551 0.05090173 0.06266742
0.054532304 0.018318884 0.030170484 0.031660184 0.04008914 -0.05067817 -0.04745377 -0.09719929
-0.080583885 -0.06450586 -0.029637014 -0.07105751 -0.05697446 0.015206811 -0.053821813 -0.02104978
-0.0034399135 0.06475723 0.039430793 -0.022366134 0.025147568 0.019047502 0.08654379 0.048191752
-0.02058749 0.07955835 0.04519141 -0.03751617 -0.03484066 -0.15882616 0.049954213 -0.0012556972
0.018776082 -0.053293433 -0.05445073 0.104800045 0.013752064 -0.011181455 -0.016881635 -0.024110226
0.062392715 -0.008067136 -0.012078512 -0.009942562 -0.03271266 0.05943288 -0.023211243 0.010428834
0.07836732 -0.015565015 -0.0008698181 -0.034684133 -0.06347323 -0.030131198 0.042271353 0.03399303
00000000: 89f7 b33c 32c7 80bc e1a4 57bd 4f69 25bc
00000010: a5f5 99bc 472d 783d 1d02 373d bf67 373d
00000020: bc83 933d c689 853d 92f8 253d 804f ec3c
00000030: c7e4 c23c e0af 1d3c 4bf3 39bc 9a29 3b3b
00000040: ec46 b5bc e095 183d b526 0ebd 625c 46bd
00000050: 24a8 d33c 6bf5 bc3b 3064 263c e85c cebb
00000060: ad28 b0bc 3f74 433d c6de d43d 90eb 5b3c
00000070: 3484 ba3d fc1a 563d 7e1a 9a3c 9b96 c1bc
00000080: 5028 40bd 2926 0b3d 271a 3b3d ad09 90bc
00000090: 3b9b 15bc 1027 d5bd 0371 4ebc 5da7 1e3c
000000a0: 7073 7d3d 3bab 9abc 1225 22bd e03a 093d
000000b0: f5e2 bebb 2010 e03c 674c b4bc 30a9 aabd
000000c0: 84ef eabc d8ef f53c 44ed e7bd 4369 31bd
000000d0: d01e a03c e93c 273d 2e85 73bd 4424 f4bc
000000e0: 21f3 09bd 26e6 313d 2f76 8f3d 03ff 6dbd
000000f0: 4e5f 75bd c767 99bd 973b 673c 71ec bf3c
00000100: 8a5f 1dbc 3087 f7bc fc9a 413d 4022 a13c
00000110: c172 9c3c a484 34bc 77cf 333d 1992 023e
00000120: 3a4e c83d cc07 3f3d 9af8 923c 4e05 37bd
00000130: 49c9 00bd c4d2 de3c 7e3e 93bc 1c04 df3c
00000140: 054e a9bb dd4b 2fbd 482b aebc 349d 99bc
00000150: a2ac 9dbc f553 853d 9348 4dbd 8600 ffbd
00000160: 9ba8 32bd 4194 263c 90ca 0b3d 4de9 33bd
00000170: f50d 33bd 1f91 ab3c 81a8 9e3b 1ea3 cd3d
00000180: f53a a73c 7af4 e93b 970d 833d 6c75 a43d
00000190: e96b eb3b e047 ccbb 12b2 62bd dac0 17bc
000001a0: b2a0 e13c 2308 aebc 9741 2fbd 1af5 073d
000001b0: 31df e33c eec9 c2bb 5258 8dbc 6586 27bd
000001c0: 48f2 c4bc 6198 90bc 9648 14bd b4bd 96bc
000001d0: 503b b4bc 746a 44bc b78e cd3c 573a 3dbd
000001e0: 2f4c 773c 54dd 06bc e6d0 413d 2e47 323d
000001f0: bb27 223a 6ed3 4dbc c7c6 753a 0595 65bd
00000200: 49b1 f93c 76ef 133d 18f2 313c 5e41 063d
00000210: 5fd1 8b3d 19a7 b13a cb81 e9bc 616e b0ba
00000220: d323 dd3d beeb fd3d 30a2 1b3d 237f 32bc
00000230: ce84 0d3c 8e7b 80bd 1297 27bd 2c48 363c
00000240: bfb7 f4bc e005 8cbd cc1a 84bd ab1d e5bc
00000250: 7cdd b6bb daa9 413b 79e2 a8bd f7bd 52bd
00000260: 3d39 a63d 1a87 c63d fc9f 153d 25f6 99bd
00000270: 3485 37bd 3403 6d3d 5ded 833d 25d9 cdbb
00000280: 61d8 8dbd f684 49bd d771 9c3c 3c3a 583d
00000290: ce71 23bc 929a fcbc fe52 c3bc 4a57 9b3d
000002a0: b708 f03d 6986 f13b b540 b0bd 541d 903c
000002b0: 5dd8 553d 668c 793d 6049 e93b 04fe cf3b
000002c0: 5652 debd 7024 9ebd b036 b1bd 4a59 53bd
000002d0: cd2b 29bd 6c4b 4abd 4c43 83bd bf51 c9bd
000002e0: 6bf7 fabc 7a63 86bd 2e1b 8bbd af50 1abd
000002f0: aaef adbd 0b09 c8bc 38fe 0f3d e002 093d
00000300: 1c89 543c db6a dd3c 8a17 c33b d9c2 673c
00000310: bc6f fc3c d40f 2c3b 557e 503d c757 803d
00000320: 445d 5f3d 7c11 963c 1728 f73c 1cae 013d
00000330: 8334 243d ea93 4fbd e25e 42bd 6c10 c7bd
00000340: 2a09 a5bd a61b 84bd 53c9 f2bc 9a86 91bd
00000350: 0d5e 69bd fd25 793c 4374 5cbd 9770 acbc
00000360: 2c70 61bb 709f 843d 2f82 213d 2f39 b7bc
00000370: 4602 ce3c 8209 9c3c df3d b13d b764 453d
00000380: 19a7 a8bc 7def a23d a11a 393d 8eaa 19bd
00000390: 14b5 0ebd 53a3 22be ca9c 4c3d 3596 a4ba
000003a0: 4cd0 993c 374a 5abd bb07 5fbd 68a1 d63d
000003b0: 5650 613c 6c32 37bc 5b4b 8abc cf82 c5bc
000003c0: 818f 7f3d 052c 04bc f4e4 45bc 21e6 22bc
000003d0: b6fd 05bd e46f 733d 8125 bebc b3dd 2a3c
000003e0: 0c7f a03d 6804 7fbc 8104 64ba f310 0ebd
000003f0: 41fe 81bd b4d5 f6bc ba24 2d3d 473c 0b3d

module.fc1.bias f4 [120]
-0.027196707 -0.033573814 0.48428535 -0.07288763 0.053822897 0.108266436 -0.02549422 -0.041763455
0.03868109 0.10617438 -0.21865769 -0.15459886 0.11563534 0.01614202 0.04565151 0.14472415
-0.09062661 0.045006283 0.14414752 -0.11628331 -0.10884491 -0.30784014 -0.04495995 0.04814537
0.16859296 0.09896868 -0.11547169 0.28515613 0.002795929 0.083596066 -0.10553266 0.3134564
-0.10745334 -0.3482925 0.36018023 -0.14276183 -0.0324406 0.010790789 -0.09885693 -0.036251273
-0.05000417 0.050282236 -0.06441921 0.026022276 -0.0916169 0.18651985 -0.11313247 -0.009659498
0.2387813 0.12545593 -0.03408341 -0.05806933 -0.019854141 0.034732647 0.06727953 0.21180114
0.055796932 -0.22562285 0.060206253 -0.043109987 0.0101035815 0.09897516 -0.13077936 0.21421172
-0.13443482 -0.021370646 0.2149284 0.2576647 0.15661603 0.15852682 -0.024549257 0.09122697
-0.04954721 -0.014960818 -0.24539801 -0.037896678 0.13533795 0.15162572 0.02342917 -0.014228258
0.26248693 0.37424463 0.019729037 0.15406589 0.09285627 0.015526703 0.15675774 -0.013185861
-0.12170992 0.09064447 0.12425552 -0.016506592 0.121984504 0.08138211 0.13981488 0.2883281
0.110596485 0.03642179 -0.18887527 -0.16296914 0.16320527 0.06269866 0.12663212 0.07225439
0.13765359 0.35494557 0.023978623 0.2796841 0.08975155 -0.21706584 0.08697365 -0.017645327
-0.006754859 0.011927908 0.044595897 0.1373355 -0.060346324 -0.096919455 0.18251212 0.00073641905
00000000: a1cb debc b284 09bd 40f4 f73e 1c46 95bd
00000010: 6675 5c3d cbba dd3d 41d9 d0bc 2810 2bbd
00000020: 1070 1e3d f471 d93d cde7 5fbe 2a4f 1ebe
00000030: 39d2 ec3d 453c 843c 14fd 3a3d 9132 143e
00000040: 729a b9bd 8258 383d 689b 133e f225 eebd
00000050: 15ea debd 399d 9dbe ed27 38bd 1434 453d
00000060: a2a3 2c3e 17b0 ca3d 6c7c ecbd fcff 913e
00000070: e83b 373b 6a34 ab3d 8221 d8bd 5b7d a03e
00000080: 7f10 dcbd 6553 b2be 8b69 b83e 2830 12be
00000090: 6fe0 04bd d9cb 303c 8175 cabd 377c 14bd
000000a0: 2cd1 4cbd bff4 4d3d 38ee 83bd ab2c d53c
000000b0: a4a1 bbbd 0fff 3e3e ffb1 e7bd df42 1ebc
000000c0: 1683 743e 8577 003e 0c9b 0bbd 1bda 6dbd
000000d0: 27a5 a2bc d243 0e3d dac9 893d 66e2 583e
000000e0: 538b 643d ad09 67be d59a 763d 1994 30bd
000000f0: 7e89 253c 7db3 ca3d 06eb 05be 515a 5b3e
00000100: 48a9 09be 7e11 afbc 3116 5c3e a1ec 833e
00000110: f45f 203e db54 223e 861b c9bc 35d5 ba3d
00000120: 04f2 4abd 381e 75bc 9e49 7bbe 8c39 1bbd
00000130: 0896 0a3e c643 1b3e 88ee bf3c a41d 69bc
00000140: b064 863e fe9c bf3e ca9e a13c 73c3 1d3e
00000150: 6e2b be3d b663 7e3c 1a85 203e 8209 58bc
00000160: 0d43 f9bd cfa3 b93d ae79 fe3d d538 87bc
00000170: 03d3 f93d aaab a63d a22b 0f3e be9f 933e
00000180: 6980 e23d 042f 153d 8568 41be 62e1 26be
00000190: 481f 273e 2868 803d daab 013e 1cfa 933d
000001a0: 10f5 0c3e 6dbb b53e d16e c43c c132 8f3e
000001b0: a9cf b73d 8246 5ebe 3e1f b23d ef8c 90bc
000001c0: dd57 ddbb 466d 433c 30aa 363d ada1 0c3e
000001d0: b52d 77bd b57d c6bd 75e4 3a3e 3f0c 413a

module.fc2.weight f4 [84, 120]
-0.006692082 -0.015558181 0.006450449 0.07286348 -0.010447768 0.060333595 -0.030924968 0.08127577
-0.08242171 0.034211155 -0.03834643 -0.03149785 -0.08224476 -0.023407936 -0.07660293 0.06537793
-0.03133482 -0.02018866 -0.041349806 0.057966325 -0.06455544 0.110044666 0.114139244 -0.012783699
-0.11600064 0.044416793 -0.023543239 -0.11157378 0.039908662 0.043781348 -0.080610536 -0.03588546
-0.12720355 -0.043985285 0.08652028 -0.07454913 -0.0853189 -0.11937046 -0.037467048 0.014231063
-0.12756185 -0.010864852 -0.009051209 -0.015430451 0.0515269 -0.0255991 -0.024052203 -0.005116833
0.08515286 0.063426435 0.0021644146 -0.07350302 0.08360639 -0.04190664 0.009216136 0.1914321
-0.11077359 -0.07243049 -0.0804621 -0.023491064 0.030058006 0.067088515 0.06100185 -0.05572256
0.05132068 0.00013162161 0.07411153 -0.03561504 -0.0014283697 0.08976749 0.012538892 -0.09055313
0.010128373 -0.010728126 -0.1067963 -0.094551116 0.07283347 -0.1260327 -0.057678446 -0.07459456
0.039090168 0.034242008 0.0036447824 0.04466824 0.031814937 -0.060929175 -0.06830788 0.027184004
0.018774949 -0.10542243 -0.14448069 -0.0634864 0.017954826 0.16163439 0.025452437 -0.027140176
0.01206118 -0.04251205 0.006044511 -0.02150262 0.016434014 0.020330401 -0.10296297 0.033699602
0.028433995 -0.042510442 -0.15185593 0.060525555 -0.011298554 0.13144383 -0.1046056 -0.10631684
0.0073600197 0.08201771 -0.015885307 0.041657608 -0.08158446 -0.029174447 0.08158293 -0.042719193
-0.07343652 0.07901435 0.03745182 -0.090780035 -7.1254675e-05 0.013479964 -0.02295491 -0.123733886
-0.077557825 0.08027279 -0.084291376 0.012591459 -0.07961981 -0.12282846 -0.096387774 0.024181614
-0.10420428 -0.08717379 -0.08165948 0.004398185 0.13690388 0.021153117 0.011010085 -0.015579968
-0.060629297 0.04460314 -0.021009896 -0.06443111 -0.11185158 0.08918176 -0.23843513 0.268381
0.032955483 -0.016857523 0.015646242 -0.041088995 -0.08282193 -0.09491652 0.07822634 -0.024652928
0.05071922 0.14557467 -0.078016736 0.04413295 -0.008572255 -0.002403664 -0.14818019 -0.1423889
0.052194558 -0.029027982 -0.14541337 -0.13132957 0.0041881027 -0.015858773 0.049611077 0.09354761
0.041432627 -0.07590017 -0.09363768 0.028633976 0.07764747 0.051880784 0.066278435 -0.014314494
0.059369486 0.12261904 -0.033381503 -0.0027618045 -0.0007968566 -0.035053346 -0.0070885015 0.016015558
0.016343422 -0.12282665 -0.13317142 -0.11409058 0.15385254 -0.16728327 -0.12109449 0.06077444
-0.020865371 0.1515384 -0.085149534 0.076357946 -0.06400725 0.044921387 0.08298952 0.020846074
0.01261397 -0.09326639 0.040863533 -0.050522503 0.19511883 0.01841011 0.01710336 -0.018675065
0.005093851 -0.067002 0.17493558 0.09423933 -0.05182396 -0.01509725 0.09747005 -0.0028010292
0.065197945 0.038624287 -0.17541894 0.091799185 -0.13710538 -0.048407953 0.048759636 -0.016732981
0.17004375 -0.013285583 -0.0015545939 -0.008316588 -0.08996244 -0.13061574 -0.00019541061 -0.056783535
-0.0004413034 0.16507779 0.2398108 -0.027971162 0.027863547 0.040286075 -0.01881133 -0.13093011
0.0802941 -0.08444687 -0.16528837 0.009754772 0.16721535 0.123458356 0.061829653 0.020260975
00000000: 4149 dbbb bee7 7ebc 4a5e d33b 7339 953d
00000010: 1d2d 2bbc 5c20 773d 5c56 fdbc e973 a63d
00000020: b7cc a8bd ff20 0c3d 2511 1dbd e403 01bd
00000030: f16f a8bd 00c2 bfbc ffe1 9cbd dde4 853d
00000040: f158 00bd b062 a5bc 6a5e 29bd 196e 6d3d
00000050: a435 84bd 195f e13d d6c1 e93d b872 51bc
00000060: be91 edbd 62ee 353d c0dd c0bc cb80 e4bd
00000070: 4477 233d 1254 333d 2317 a5bd a2fc 12bd
00000080: a641 02be ea29 34bd 8b31 b13d 37ad 98bd
00000090: adbb aebd 8078 f4bd 0c77 19bd 6829 693c
000000a0: 939f 02be 7e02 32bc 864b 14bc 01d0 7cbc
000000b0: df0d 533d 34b5 d1bc 2009 c5bc 1bab a7bb
000000c0: 9f64 ae3d b8e5 813d dad8 0d3b c088 96bd
000000d0: d439 ab3d 4ca6 2bbd 47ff 163c c706 443e
000000e0: 44dd e2bd 7056 94bd 50c9 a4bd 5570 c0bc
000000f0: 353c f63c b465 893d 13dd 793d 573d 64bd
00000100: a235 523d e803 0a39 c9c7 973d 14e1 11bd
00000110: 2238 bbba 05d8 b73d ed6f 4d3c eb73 b9bd
00000120: 7af1 253c 06c5 2fbc 05b8 dabd 04a4 c1bd
00000130: b729 953d b70e 01be 3c40 6cbd 08c5 98bd
00000140: 031d 203d 5941 0c3d 4ddd 6e3b 0bf6 363d
00000150: 6150 023d df90 79bd 00e5 8bbd fdb0 de3c
00000160: eccd 993c b7e7 d7bd bff2 13be 2805 82bd
00000170: 0016 933c 7c83 253e a181 d03c 1355 debc
00000180: 419c 453c 1e21 2ebd 0911 c63b 4326 b0bc
00000190: a0a0 863c f18b a63c 40de d2bd 9808 0a3d
000001a0: 69ee e83c 6e1f 2ebd 1f80 1bbe a5e9 773d
000001b0: 921d 39bc 3699 063e 763b d6bd a5bc d9bd
000001c0: 522c f13b e7f8 a73d e721 82bc 2ba1 2a3d
000001d0: c115 a7bd 40ff eebc f414 a73d 52fa 2ebd
000001e0: e365 96bd 47d2 a13d 1467 193d e2ea b9bd
000001f0: 906e 95b8 11db 5c3c ef0b bcbc 3168 fdbd
00000200: a3d6 9ebd 0f66 a43d f5a0 acbd 684c 4e3c
00000210: b60f a3bd 7d8d fbbd f466 c5bd 8518 c63c
00000220: 0e69 d5bd 2c88 b2bd 163d a7bd a61e 903b
00000230: 8830 0c3e 4d49 ad3c a563 343c 1f43 7fbc
00000240: 6d56 78bd c8b1 363d f21c acbc 75f4 83bd
00000250: 7112 e5bd eda4 b63d 5728 74be 3c69 893e
00000260: 54fc 063d ca18 8abc 8c2c 803c ef4c 28bd
00000270: 8b9e a9bd 9863 c2bd 2235 a03d f0f4 c9bc
00000280: f5be 4f3d 8711 153e 3dc7 9fbd c1c4 343d
00000290: a572 0cbc ca86 1dbb 8cbc 17be 65ce 11be
000002a0: f6c9 553d 17cc edbc 3ee7 14be 427b 06be
000002b0: 5a3c 893b 42ea 81bc fc34 4b3d e495 bf3d
000002c0: 42b5 293d 8c71 9bbd 1dc5 bfbd cd91 ea3c
000002d0: a305 9f3d f280 543d fdbc 873d 5787 6abc
000002e0: 6b2d 733d b11f fb3d 0bbb 08bd 64ff 34bb
000002f0: 24e4 50ba 1994 0fbd a946 e8bb 0f33 833c
00000300: a4e2 853c 8a8c fbbd 175e 08be 52a8 e9bd
00000310: 858b 1d3e 4e4c 2bbe 6300 f8bd 9fee 783d
00000320: dbed aabc e22c 1b3e e162 aebd 8e61 9c3d
00000330: 3c16 83bd 7dff 373d 69f6 a93d 63c5 aa3c
00000340: d3aa 4e3c 7302 bfbd 8560 273d aff0 4ebd
00000350: 3bcd 473e cdd0 963c 581c 8c3c 73fc 98bc
00000360: 52ea a63b 5838 89bd 5022 333e 8d00 c13d
00000370: 5c45 54bd 755a 77bc 619e c73d 7991 37bb
00000380: 8086 853d 8034 1e3d 06a1 33be 3601 bc3d
00000390: 5a65 0cbe 6b47 46bd 2fb8 473d 9b13 89bc
000003a0: f31f 2e3e c6ab 59bc 84c3 cbba 4c42 08bc
000003b0: 3a3e b8bd 22c0 05be 23e7 4cb9 da95 68bd
000003c0: bd5e e7b9 270a 293e f690 753e c723 e5bc
000003d0: 1842 e43c 0303 253d 381a 9abc 8b12 06be
000003e0: 3c71 a43d 7bf2 acbd 5b41 29be 7bd2 1f3c
000003f0: 803a 2b3e bcd7 fc3d 1741 7d3d 58fa a53c

module.fc2.bias f4 [84]
0.0785994 0.52788043 0.2327686 0.38115412 -0.009194822 -0.04681688 0.07975802 0.10984734
0.12371711 0.3610767 -0.18627875 0.41471493 -0.07384667 0.18309365 0.23996493 -0.09404485
-0.033656936 -0.05002276 0.16294704 -0.06314075 0.10009894 0.18252097 0.15494189 0.051717326
-0.07599619 -0.20885642 -0.12626266 0.037046347 0.036221188 0.047545306 0.11434635 0.12229978
0.5042871 0.052742496 -0.18215884 0.10699681 0.0802287 0.4653143 0.19857028 0.028218709
-0.018602416 -0.017774334 0.026218144 -0.02216104 -0.25836563 0.26860493 0.1914649 0.041497137
0.5490957 0.002661645 0.13224578 0.20579247 -0.02974473 -0.13925174 0.3900721 0.2231713
0.3735365 0.036869146 0.31373242 0.22083195 0.24520826 0.064277545 0.050908007 -0.032942515
-0.20358336 -0.18107277 0.1677267 -0.15292211 0.22898209 0.22296813 0.022037929 0.39048865
0.27559963 0.09772729 0.3089979 0.34819397 0.54898983 0.3805075 -0.19568089 0.239691
0.43738556 -0.059504937 0.08518056 0.32030126
00000000: b9f8 a03d 2c23 073f e45a 6e3e a226 c33e
00000010: e1a5 16bc 0fc3 3fbd 2c58 a33d a4f7 e03d
00000020: 655f fd3d 0cdf b83e dbbf 3ebe 8455 d43e
00000030: ec3c 97bd e77c 3b3e 5eb9 753e 969a c0bd
00000040: dbdb 09bd aae4 4cbd 97db 263e f04f 81bd
00000050: ac00 cd3d c7e6 3a3e 16a9 1e3e 8cd5 533d
00000060: e4a3 9bbd 75de 55be 004b 01be e9bd 173d
00000070: ab5c 143d debe 423d 6b2e ea3d 4f78 fa3d
00000080: f618 013f 8408 583d d987 3abe 2521 db3d
00000090: f24e a43d ad3d ee3e 0256 4b3e ec2a e73c
000000a0: 1864 98bc 7b9b 91bc 6fc7 d63c 128b b5bc
000000b0: 8048 84be 9686 893e 600f 443e e7f8 293d
000000c0: 8991 0c3f fe6e 2e3b 706b 073e 43bb 523e
000000d0: 38ab f3bc 0298 0ebe 88b7 c73e 0487 643e
000000e0: 2d40 bf3e 1a04 173d 89a1 a03e c521 623e
000000f0: e017 7b3e f2a3 833d ea84 503d bbee 06bd
00000100: 2878 50be 246b 39be 8cc0 2b3e 9d97 1cbe
00000110: 487a 6a3e c251 643e e388 b43c 21ee c73e
00000120: 651b 8d3e 3f25 c83d f934 9e3e 7b46 b23e
00000130: 998a 0c3f e1d1 c23e 9260 48be 8f71 753e
00000140: 00f1 df3e 73bb 73bd 2573 ae3d 87fe a33e

module.fc3.weight f4 [10, 84]
-0.027850376 -0.17829043 -0.08009677 -0.10630275 0.05931617 -0.04652673 0.16972487 -0.013409748
-0.1375908 0.065723404 0.18422313 -0.10313972 0.13348465 -0.08393263 -0.024847275 0.27496248
0.09759902 0.057168584 -0.19153017 0.1735422 0.1960442 0.18624282 -0.00058471825 -0.16764148
-0.13408919 -0.14590785 0.04963391 -0.02179758 -0.19209221 0.18421966 -0.06041599 0.0010856218
-0.24199307 -0.11649021 0.2295175 0.15803438 0.17612828 0.30210423 0.26864803 0.03410745
0.00923142 -0.11419987 0.13506584 0.15910578 0.101770304 -0.13818748 -0.22723517 0.13273871
0.103292994 -0.14512964 -0.1360441 0.18973234 -0.07211191 -0.14559507 -0.06000317 0.07725915
0.04864792 -0.064517684 0.10087333 -0.19629799 -0.0013574463 0.006583438 0.11055564 -0.11332699
0.15192766 -0.19589643 0.06739219 0.15589622 -0.16185543 -0.17229104 0.30947503 0.25701153
0.08799801 0.10649036 -0.109737456 -0.23419212 0.4298383 -0.1487041 -0.21963827 -0.055847816
-0.1383841 0.15434825 -0.15086283 -0.21854413 0.26223478 0.06331617 0.17299938 -0.103033885
0.019865293 0.34141085 -0.12911147 0.21819119 -0.22754456 0.13775738 0.114825666 0.058072332
-0.09927371 -0.12223003 -0.18612151 0.28477594 0.06507201 -0.1937797 -0.24490969 0.08978397
-0.45654225 -0.04802856 0.04812505 -0.06834792 0.14152384 -0.0035731306 0.23142457 -0.19519769
-0.07144366 0.07066614 0.21208608 -0.13175657 -0.21136111 0.29617167 -0.09485655 0.3054816
-0.13377309 -0.20933834 -0.17967193 0.09265695 -0.010841234 -0.0009116645 -0.1057802 -0.07441344
0.27043697 -0.11436881 0.020583926 -0.16827613 -0.05689711 0.3753818 -0.041662067 -0.14655806
0.0051021837 -0.11411266 -0.11388907 -0.05541351 -0.010862716 -0.20940225 0.36933705 -0.25567356
-0.06876055 0.19775525 -0.3315414 0.21543437 0.16313165 0.010370568 -0.02341278 0.15891801
-0.078514084 -0.05089561 0.0062434585 -0.3905925 -0.24957383 -0.028330106 0.09373645 -0.073480375
0.15639828 -0.15621743 0.08186582 0.22451255 -0.08059713 0.056239355 0.0630017 -0.10766877
-0.021788865 -0.07136181 -0.056818288 -0.07521372 0.29880926 -0.16084813 -0.034564245 -0.1413409
-0.010494023 0.16502011 0.005020696 -0.10843249 0.372894 -0.06908797 0.18453819 0.033682294
-0.20181638 0.30150172 0.08824547 0.06829751 0.1419363 -0.013302482 -0.273407 -0.0018761475
0.01224096 0.1601834 -0.04674819 -0.18380879 0.09552543 -0.07237033 0.26959646 -0.0021465474
0.07465927 -0.1956265 0.1792674 -0.078346424 0.1798087 0.18025523 -0.18867005 0.013598316
0.13534902 0.22611289 0.22105049 0.02692106 0.10630116 -0.082809836 -0.08406331 -0.009711901
-0.16016953 -0.007946133 -0.12302997 0.12645204 -0.021764323 0.19475926 0.0071668676 0.024529563
0.3127633 0.057254 -0.12556541 0.07609365 -0.28944892 0.028038245 0.12029709 0.28526875
-0.06998352 -0.044351894 0.1739244 0.17698993 0.03052394 0.10745572 0.03666041 -0.11126618
-0.028110912 0.26845795 -0.17887792 -0.18767089 -0.16162524 0.24608104 0.25452584 -0.26868606
-0.018222889 -0.13539414 0.067449816 0.33320808 0.24334012 0.1072515 -0.13251339 -0.21439433
00000000: 7926 e4bc c491 36be c609 a4bd 42b5 d9bd
00000010: 83f5 723d d092 3ebd 5bcc 2d3e 8fb4 5bbc
00000020: 9ae4 0cbe fe99 863d fda4 3c3e eb3a d3bd
00000030: 33b0 083e dfe4 abbd 838c cbbc e2c7 8c3e
00000040: ffe1 c73d 9b29 6a3d 7c20 44be 0cb5 313e
00000050: d0bf 483e 70b6 3e3e c747 19ba 35aa 2bbe
00000060: ad4e 09be de68 15be ed4c 4b3d d790 b2bc
00000070: d2b3 44be 14a4 3c3e c276 77bd 6c4b 8e3a
00000080: 08cd 77be 6b92 eebd a306 6b3e c4d3 213e
00000090: f95a 343e 68ad 9a3e 3c8c 893e 41b4 0b3d
000000a0: 623f 173c 9fe1 e9bd b34e 0a3e a0ec 223e
000000b0: f36c d03d 0581 0dbe 56b0 68be a8ec 073e
000000c0: 478b d33d dd9c 14be 254f 0bbe 3249 423e
000000d0: 69af 93bd e016 15be e2c5 75bd 0c3a 9e3d
000000e0: 0b43 473d d921 84bd ad96 ce3d 5702 49be
000000f0: 57ec b1ba e1b9 d73b ff6a e23d fb17 e8bd
00000100: ed92 1b3e 1399 48be eb04 8a3d 42a3 1f3e
00000110: 6ebd 25be 106d 30be 8373 9e3e 0497 833e
00000120: 4d38 b43d 9e17 da3d 08be e0bd 0fd0 6fbe
00000130: c413 dc3e e345 18be dbe8 60be aec0 64bd
00000140: 90b4 0dbe 780d 1e3e c97b 1abe 08ca 5fbe
00000150: a343 863e e8ab 813d c026 313e 6e03 d3bd
00000160: 8abc a23c 67cd ae3e cc35 04be 836d 5f3e
00000170: 7101 69be 4510 0d3e b829 eb3d 41dd 6d3d
00000180: 0450 cbbd bd53 fabd a396 3ebe 27ce 913e
00000190: 7944 853d 306e 46be 9bc9 7abe a8e0 b73d
000001a0: e8bf e9be 98b9 44bd c61e 453d fff9 8bbd
000001b0: a0eb 103e 2f2b 6abb 90fa 6c3e e7e1 47be
000001c0: 0e51 92bd 69b9 903d 182d 593e 32eb 06be
000001d0: 0c6f 58be d0a3 973e 2744 c2bd 1668 9c3e
000001e0: d0fb 08be ca5c 56be ebfb 37be edc2 bd3d
000001f0: 6e9f 31bc c5fc 6eba 4aa3 d8bd 1366 98bd
00000200: b776 8a3e 323a eabd 9f9f a83c 9450 2cbe
00000210: f20c 69bd 0b32 c03e d8a5 2abd 5113 16be
00000220: 3830 a73b e6b3 e9bd ac3e e9bd 47f9 62bd
00000230: 88f9 31bc 8b6d 56be bf19 bd3e a5e7 82be
00000240: 55d2 8cbd 5a80 4a3e cbbf a9be d49a 5c3e
00000250: fc0b 273e 51e9 293c 29cc bfbc 67bb 223e
00000260: fecb a0bd ea77 50bd ed95 cc3b bdfb c7be
00000270: 4890 7fbe 8a14 e8bc e5f8 bf3d e17c 96bd
00000280: df26 203e 76f7 1fbe 44a9 a73d 9ee6 653e
00000290: 1c10 a5bd 3d5b 663d 0907 813d 7281 dcbd
000002a0: 907e b2bc 2426 92bd 4bba 68bd a709 9abd
000002b0: 87fd 983e 5fb5 24be 3d93 0dbd abbb 10be
000002c0: 1fef 2bbc 08fb 283e a784 a43b da11 debd
000002d0: f6eb be3e fe7d 8dbd 94f7 3c3e 72f6 093d
000002e0: f4a8 4ebe 6f5e 9a3e 0aba b43d 91df 8b3d
000002f0: c057 113e a7f2 59bc 01fc 8bbe 10e9 f5ba
00000300: 4f8e 483c 1e07 243e 087b 3fbd 5f38 3cbe
00000310: d6a2 c33d e536 94bd 8c08 8a3e 17ad 0cbb
00000320: f6e6 983d 5052 48be e091 373e 1774 a0bd
00000330: c61f 383e d494 383e b932 41be 79cb 5e3c
00000340: ef98 0a3e 238a 673e 0f5b 623e 8e89 dc3c
00000350: 6cb4 d93d 3498 a9bd 6229 acbd aa1e 1fbc
00000360: 7b03 24be 7f30 02bc 23f7 fbbd a57c 013e
00000370: 184b b2bc f96e 473e 0bd8 ea3b 39f2 c83c
00000380: 8322 a03e 2c83 6a3d 3894 00be fdd6 9b3d
00000390: a632 94be 76b0 e53c 525e f63d bf0e 923e
000003a0: 8553 8fbd 55aa 35bd 3d19 323e d93c 353e
000003b0: 580d fa3c bf11 dc3d 3a29 163d 86df e3bd
000003c0: db48 e6bc 5273 893e c62b 37be cc2c 40be
000003d0: 1681 25be abfc 7b3e 3651 823e 3891 89be
000003e0: 2b48 95bc c3a4 0abe 2123 8a3d 409a aa3e
000003f0: 272e 793e ada6 db3d 97b1 07be 308a 5bbe

module.fc3.bias f4 [10]
-0.30894855 -0.72134954 -0.29553238 0.33605114 0.9761298 0.18551575 -0.2069553 -0.2873894
0.4719218 -0.10756359
00000000: 812e 9ebe 5daa 38bf 0550 97be e50e ac3e
00000010: a4e3 793f d7f7 3d3e 17ec 53be b424 93be
00000020: bc9f f13e 4d4a dcbd

momentum_buffer f4 [6, 3, 5, 5]
0.0033714585 0.02636064 0.028053995 0.021763764 0.019975737 0.0020652078 0.033116944 0.06064444
0.06025933 0.03807246 -0.034890898 -0.005873545 0.012776511 0.014519485 0.0056770276 -0.03879661
-0.021883607 -0.029181652 -0.038470212 -0.021081857 -0.022562535 -0.006101499 -0.010386479 -0.0016553402
0.020977227 0.0003882656 0.021503206 0.021751896 0.024335232 0.015158903 -0.006624816 0.02601863
0.050617114 0.055616558 0.028340021 -0.039519705 -0.008258936 0.011214557 0.016232992 0.0014905259
-0.042745266 -0.022076676 -0.027284237 -0.034996707 -0.022350546 -0.029770393 -0.008924814 -0.012024831
-0.0025062226 0.014356706 -0.018957175 -0.0070956983 -0.011397537 -0.011183724 -0.023700029 -0.04205974
-0.02197909 -0.00074065663 0.0025751628 -0.02542571 -0.07978859 -0.05829531 -0.038743895 -0.03342139
-0.049285717 -0.08793601 -0.07597025 -0.08074648 -0.08525187 -0.07555713 -0.079759054 -0.06591155
-0.06868619 -0.057493437 -0.041764367 0.0644058 0.053849272 0.071825005 0.08443843 0.07524781
0.040833145 0.030314844 0.03527823 0.044015475 0.021138495 0.022970533 0.013527823 0.015845893
0.024594927 -0.013130625 -0.023592584 -0.03742472 -0.015832664 -0.004192382 -0.035529938 -0.03375086
-0.04404799 -0.024079336 -0.009647454 -0.033899013 0.060750797 0.052299872 0.06732504 0.08216076
0.065257326 0.036128003 0.023292743 0.023679737 0.03768496 0.011816251 0.018725801 0.0060839104
0.0030796197 0.018190363 -0.02247832 -0.023873445 -0.04124063 -0.02560908 -0.008518403 -0.044778608
-0.026545532 -0.04432206 -0.033965778 -0.016508484 -0.045476418 0.06390131 0.04663832 0.062016375
0.0774732 0.06164599 0.03831908 0.017141309 0.019077688 0.036315776 0.012695994 0.018428355
0.0012335088 0.0005397658 0.021237321 -0.0221744 -0.02674146 -0.046953745 -0.028391369 -0.00465237
-0.04436429 -0.032266434 -0.0536386 -0.04205765 -0.016601551 -0.04397526 -0.11297788 -0.096128404
-0.09849397 -0.09856405 -0.08265157 -0.121515416 -0.10058638 -0.12054446 -0.12308695 -0.09463997
-0.124263495 -0.09943072 -0.15499076 -0.18214235 -0.14869836 -0.104947396 -0.09383915 -0.15620454
-0.18081245 -0.15539396 -0.114426 -0.114904724 -0.14421165 -0.15524168 -0.13794233 -0.070361905
-0.05799595 -0.06377478 -0.06410723 -0.047085043 -0.08045196 -0.06808701 -0.09267536 -0.09237245
-0.06376699 -0.08649417 -0.068473324 -0.12773174 -0.14776684 -0.11381885 -0.075958796 -0.06688078
-0.12801632 -0.14476722 -0.11479412 -0.082478285 -0.08317354 -0.11207042 -0.116890535 -0.095019095
-0.0054709613 0.012138497 0.005172774 0.009084947 0.02703011 -0.012852669 0.00021891296 -0.02642344
-0.02122505 0.011197068 -0.016366184 -0.0018001124 -0.0624585 -0.07802518 -0.037813395 -0.0038866252
0.0024005547 -0.058058806 -0.07109917 -0.036053367 -0.007355027 -0.010781445 -0.038513668 -0.041424103
-0.02137573 0.23503539 0.19709896 0.15486673 0.15089507 0.15047072 0.18401325 0.16258453
0.15990734 0.1848339 0.18122977 0.16784398 0.10459172 0.106732175 0.1895474 0.18712044
0.1834491 0.14783782 0.11782013 0.13459271 0.14040005 0.21500304 0.18774673 0.15831394
0.15922675 0.16575047 0.3153532 0.28591877 0.24809302 0.24353158 0.23779239 0.27969423
00000000: b0f3 5c3b 45f2 d73c 7ed1 e53c ec49 b23c
00000010: 28a4 a33c 7058 073b a2a5 073d 4e66 783d
00000020: 7dd2 763d def1 1b3d c2e9 0ebd de76 c0bb
00000030: 9254 513c 22e3 6d3c 5c06 ba3b 32e9 1ebd
00000040: 4045 b3bc 5c0e efbc f192 1dbd dcb3 acbc
00000050: 11d5 b8bc 15ef c7bb 0d2c 2abc 00f8 d8ba
00000060: 6fd8 ab3c 2090 cb39 7e27 b03c 0831 b23c
00000070: ae5a c73c 0c5d 783c fc14 d9bb 0625 d53c
00000080: e453 4f3d 30ce 633d 5529 e83c 6adf 21bd
00000090: 7d50 07bc 43bd 373c 0dfb 843c c05d c33a
000000a0: a915 2fbd 25da b4bc 3183 dfbc b558 0fbd
000000b0: 7e18 b7bc 0ae1 f3bc 6239 12bc cc03 45bc
000000c0: 703f 24bb 6438 6b3c 144c 9bbc 0883 e8bb
000000d0: bcbc 3abc f03b 37bc 9026 c2bc d546 2cbd
000000e0: 7e0d b4bc a028 42ba 10c4 283b 9449 d0bc
000000f0: 3368 a3bd 10c7 6ebd ebb1 1ebd dee4 08bd
00000100: d2df 49bd cb17 b4bd 4a96 9bbd 695e a5bd
00000110: 8898 aebd b2bd 9abd b758 a3bd a2fc 86bd
00000120: 58ab 8cbd 3d7e 6bbd 1d11 2bbd 30e7 833d
00000130: 0e91 5c3d fd18 933d 0eee ac3d 861b 9a3d
00000140: a840 273d d656 f83c e87f 103d 9249 343d
00000150: a32a ad3c b32c bc3c cda3 5d3c 3fcf 813c
00000160: 4d7b c93c d521 57bc 3c45 c1bc aa4a 19bd
00000170: 81b3 81bc 4060 89bb d787 11bd 573e 0abd
00000180: aa6b 34bd 0742 c5bc 5b10 1ebc b1d9 0abd
00000190: d4d5 783d 6438 563d b6e1 893d e743 a83d
000001a0: a2a5 853d f5fa 133d 6cd0 be3c 02fc c13c
000001b0: 8b5b 1a3d f398 413c da66 993c 8a5b c73b
000001c0: 72d3 493b f503 953c 7424 b8bc 3e92 c3bc
000001d0: efeb 28bd 22ca d1bc c690 0bbc c669 37bd
000001e0: 0476 d9bc 0c8b 35bd b31f 0bbd cd3c 87bc
000001f0: 7b45 3abd b1de 823d d307 3f3d e204 7e3d
00000200: 45aa 9e3d 8180 7c3d 78f4 1c3d ee6b 8c3c
00000210: d048 9c3c dabf 143d dc02 503c 10f7 963c
00000220: b0ad a13a 127f 0d3a e4f9 ad3c 16a7 b5bc
00000230: e810 dbbc 9252 40bd 0495 e8bc e872 98bb
00000240: 54b7 35bd cf29 04bd 26b4 5bbd a444 2cbd
00000250: faff 87bc 671f 34bd f260 e7bd f8de c4bd
00000260: 35b7 c9bd f3db c9bd 3a45 a9bd 13dd f8bd
00000270: 3b00 cebd 04e0 f6bd 0315 fcbd 9ad2 c1bd
00000280: dc7d febd 55a2 cbbd e6b5 1ebe 8683 3abe
00000290: 6244 18be a9ee d6bd be2e c0bd 15f4 1fbe
000002a0: e626 39be 981f 1fbe 2e58 eabd 2b53 ebbd
000002b0: 38ac 13be adf7 1ebe c140 0dbe e719 90bd
000002c0: 298d 6dbd 5a9c 82bd a74a 83bd 3fdc 40bd
000002d0: ffc3 a4bd 3471 8bbd 94cc bdbd c42d bdbd
000002e0: 4598 82bd db23 b1bd be3b 8cbd 1ccc 02be
000002f0: 3150 17be db19 e9bd 4990 9bbd caf8 88bd
00000300: b616 03be dc3d 14be 2e19 ebbd 60ea a8bd
00000310: e456 aabd 2d85 e5bd 4e64 efbd 5f99 c2bd
00000320: c045 b3bb 8ce0 463c 6080 a93b 08d9 143c
00000330: 406e dd3c 0094 52bc 008c 6539 f875 d8bc
00000340: 28e0 adbc e873 373c 6012 86bc c0f1 ebba
00000350: 7cd4 7fbd aacb 9fbd 38e2 1abd c0b6 7ebb
00000360: a052 1d3b 12cf 6dbd 719c 91bd b2ac 13bd
00000370: 7002 f1bb a8a4 30bc 82c0 1dbd 52ac 29bd
00000380: 281c afbc 1ead 703e 4fd4 493e 6295 1e3e
00000390: 3d84 1a3e ff14 1a3e f86d 3c3e 8f7c 263e
000003a0: c0be 233e 1945 3d3e 4c94 393e 4bdf 2b3e
000003b0: 2f34 d63d 6696 da3d b718 423e 809c 3f3e
000003c0: 15da 3b3e cc62 173e ae4b f13d acd2 093e
000003d0: 08c5 0f3e c229 5c3e ae40 403e 0d1d 223e
000003e0: 560c 233e 7eba 293e fa75 a13e f263 923e
000003f0: 190c 7e3e 5860 793e d97f 733e 1534 8f3e

momentum_buffer f4 [16, 6, 5, 5]
0.034767788 0.045488227 0.04263794 0.036582395 0.031719405 0.0005933151 0.0016092861 0.0049681743
0.0044358075 0.0036495181 -0.008858232 -0.0044952007 0.002498852 0.005101614 0.010475975 0.005095534
0.0017795856 0.0038610664 0.007898004 0.0068905223 0.0111341085 0.006197338 0.0006641112 -0.010928363
-0.017248984 -0.005925482 -0.011166995 -0.00840641 -0.003004495 0.0056795646 0.0004198756 -0.0052604824
-0.0020333454 -0.005332129 0.0034041535 0.00836917 0.0011373796 -0.007581627 -0.0029579476 0.0051326156
0.006668033 -0.00012723729 -0.007375201 -0.010253288 0.0015578605 -0.0051461663 -0.0113636805 -0.011781859
-0.014128883 -0.0041781217 0.01006989 0.0064217485 0.035259765 0.03558416 0.027544629 -0.0015889527
0.01676763 0.039191548 0.050878193 0.02975 0.020600922 0.026238853 0.05034683 0.042256366
0.03413001 0.020381546 0.041859105 0.02291031 0.016828854 0.030681916 0.030180959 0.05552846
0.03992072 0.039215185 0.026984759 0.009881221 0.007717719 0.0035122437 0.011957823 0.02186657
0.014569559 0.0069369175 0.0060906103 0.014638521 0.014054818 0.03376398 0.026980773 0.01288812
0.0045418236 -0.0033708164 0.027788943 0.021795124 0.037640277 0.012018374 0.0030916273 0.027837906
0.009810259 0.021641806 0.017970316 0.008529974 0.057230607 0.058208585 0.059972163 0.049559116
0.044752695 0.05205904 0.05729737 0.055979487 0.044989154 0.039739065 0.03994009 0.040010236
0.05007302 0.042064905 0.043343097 0.036949355 0.03414578 0.04559972 0.044300713 0.049998432
0.045011796 0.0415221 0.037768908 0.0388847 0.04529357 -0.010993014 -0.0033021255 0.0038508172
-0.006770101 0.010616943 -0.004626955 -0.01322464 0.016803164 0.0018034251 0.011348659 -0.0016423856
-0.003214038 0.039570846 0.015530808 0.018841274 0.0077375504 0.0060530202 0.039669678 0.033460952
0.014276927 0.022430187 0.011433078 0.032522216 0.024896828 0.029439911 -0.052306674 -0.06507947
-0.080693275 -0.09238135 -0.09834111 0.012608781 0.002838945 0.007574193 0.010350412 -0.0039275615
-0.0012735352 -0.0082177855 0.004639662 0.003534929 -0.0053946087 -0.0032632807 0.0028575296 -0.005473378
-0.009701873 -0.014035715 -0.009421242 -0.015649483 -0.008300943 -0.006696012 -0.01092926 -0.05737454
-0.055860795 -0.06651053 -0.07594947 -0.08933652 -0.052578274 -0.0448523 -0.051055174 -0.060242403
-0.0658697 -0.049444668 -0.034234468 -0.04030667 -0.05133728 -0.049651273 -0.042661823 -0.03354947
-0.033148274 -0.042354893 -0.04177112 -0.032755926 -0.029796604 -0.026681578 -0.03389418 -0.04043986
-0.05223254 -0.052382655 0.008889865 -0.019039758 -0.06718241 -0.047457192 -0.019650202 -0.032885727
-0.052765332 -0.034987822 -0.050858982 -0.039447915 -0.07439842 -0.035611086 -0.044994798 -0.05981899
-0.06548025 -0.070342615 -0.05346621 -0.048664704 -0.04981924 -0.06691015 -0.08464581 -0.06534624
-0.056646593 -0.033348806 -0.038209036 -0.05905889 -0.050242968 -0.028681945 -0.04824944 -0.031352974
-0.062598705 -0.06040936 -0.05454976 -0.05347672 -0.040152602 -0.012136186 -0.08003867 -0.06300357
-0.06413318 -0.062512964 -0.031481646 -0.032425787 -0.060904495 -0.06888375 -0.09278295 -0.053086597
-0.046131127 -0.046271708 -0.06111551 -0.04718662 -0.059830032 -0.06341146 -0.061644733 -0.06270281
00000000: ab68 0e3d dd51 3a3d 1fa5 2e3d 6cd7 153d
00000010: 35ec 013d b488 1b3a aeee d23a 11cc a23b
00000020: 405a 913b c12c 6f3b 1e22 11bc 7a4c 93bb
00000030: c8c3 233b 712b a73b 6da3 2b3c 70f8 a63b
00000040: fc40 e93a f209 7d3b a166 013c e4c9 e13b
00000050: d66b 363c 0a13 cb3b c017 2e3a e00c 33bc
00000060: be4d 8dbc 8c2a c2bb c6f5 36bc 0abb 09bc
00000070: 10e7 44bb a41b ba3b c022 dc39 2060 acbb
00000080: e041 05bb 24b9 aebb 3818 5f3b d81e 093c
00000090: 2014 953a 4c6f f8bb 20da 41bb 802f a83b
000000a0: 847f da3b 006b 05b9 acab f1bb 68fd 27bc
000000b0: 2031 cc3a 2ca1 a8bb bb2e 3abc b308 41bc
000000c0: d57c 67bc a0e8 88bb 2efc 243c 886d d23b
000000d0: 8b6c 103d b2c0 113d 46a5 e13c 6844 d0ba
000000e0: 455c 893c 5187 203d a765 503d 46b6 f33c
000000f0: 44c3 a83c ddf2 d63c 7a38 4e3d 0315 2d3d
00000100: e9cb 0b3d 33f7 a63c 7474 2b3d 67ae bb3c
00000110: aadc 893c a458 fb3c 0f3e f73c cf71 633d
00000120: e983 233d 1aa0 203d 240f dd3c d8e4 213c
00000130: ebe4 fc3b ac2d 663b bfea 433c 8521 b33c
00000140: 29b5 6e3c 154f e33b be93 c73b 68d6 6f3c
00000150: 2e46 663c 194c 0a3d c806 dd3c b128 533c
00000160: 94d3 943b eae8 5cbb a3a5 e33c b08b b23c
00000170: b12c 1a3d b7e8 443c e69c 4a3b 520c e43c
00000180: 35bb 203c 284a b13c 7c36 933c 4ec1 0b3c
00000190: a46a 6a3d 206c 6e3d 5fa5 753d 80fe 4a3d
000001a0: 9a4e 373d dc3b 553d a6b0 6a3d bf4a 653d
000001b0: 8c46 383d 6ec5 223d 3898 233d c6e1 233d
000001c0: 5e19 4d3d 404c 2c3d 8888 313d 3558 173d
000001d0: 72dc 0b3d c6c6 3a3d aa74 353d 28cb 4c3d
000001e0: 4a5e 383d 1413 2a3d 92b3 1a3d 9045 1f3d
000001f0: c085 393d 0b1c 34bc 7968 58bb fe5d 7c3b
00000200: b9d7 ddbb b0f2 2d3c b69d 97bb 29ac 58bc
00000210: caa6 893c e860 ec3a baef 393c 5145 d7ba
00000220: 9ca2 52bb 0a15 223d ee74 7e3c 0459 9a3c
00000230: 478b fd3b 6a58 c63b ac7c 223d 5a0e 093d
00000240: c6e9 693c 83bf b73c ce51 3b3c 0436 053d
00000250: 6ff4 cb3c f82b f13c 863f 56bd 6348 85bd
00000260: 8442 a5bd 6f32 bdbd 1067 c9bd 1095 4e3c
00000270: 980d 3a3b f030 f83b c694 293c c6b2 80bb
00000280: c0ec a6ba e4a3 06bc 4e08 983b 44aa 673b
00000290: 42c5 b0bb c4dc 55bb 6445 3b3b 065a b3bb
000002a0: 9bf4 1ebc 0ef6 65bc 8e5b 1abc 5833 80bc
000002b0: ae00 08bc 386a dbbb a410 33bc 9101 6bbd
000002c0: 4ace 64bd ac36 88bd 658b 9bbd 11f6 b6bd
000002d0: 515c 57bd 0cb7 37bd 3b1f 51bd bdc0 76bd
000002e0: b1e6 86bd 7e86 4abd 7139 0cbd 9b18 25bd
000002f0: 0a47 52bd 225f 4bbd 2abe 2ebd 2b6b 09bd
00000300: 7cc6 07bd 537c 2dbd 3218 2bbd 142b 06bd
00000310: 0218 f4bc 5393 dabc a0d4 0abd 44a4 25bd
00000320: caf1 55bd 328f 56bd cca6 113c 44f9 9bbc
00000330: ee96 89bd 7962 42bd 76f9 a0bc 2fb3 06bd
00000340: 7620 58bd 644f 0fbd 8251 50bd 2394 21bd
00000350: 335e 98bd eedc 11bd 774c 38bd c204 75bd
00000360: 821a 86bd ca0f 90bd 62ff 5abd a454 47bd
00000370: 420f 4cbd 3008 89bd c85a adbd 40d4 85bd
00000380: 4206 68bd c298 08bd 1481 1cbd bce7 71bd
00000390: 92cb 4dbd 66f6 eabc 34a1 45bd fa6b 00bd
000003a0: c033 80bd ce6f 77bd 926f 5fbd 680a 5bbd
000003b0: 0e77 24bd dad6 46bc 50eb a3bd 0408 81bd
000003c0: 4258 83bd cc06 80bd e6f2 00bd e7d0 04bd
000003d0: fe76 79bd ec12 8dbd fd04 bebd 5571 59bd
000003e0: fef3 3cbd 6787 3dbd 4254 7abd c246 41bd
000003f0: 5610 75bd dedd 81bd 307f 7cbd 556a 80bd

momentum_buffer f4 [16]
0.02796581 -0.0692516 0.075353056 0.0013392 0.016465036 -0.021174593 0.036008768 -0.03118318
0.042511553 -0.01622878 0.04273049 0.027049167 -0.004337454 -0.030958164 0.013997067 -0.104017384
00000000: 8e18 e53c c8d3 8dbd b452 9a3d 1888 af3a
00000010: afe1 863c 5776 adbc ee7d 133d de73 ffbc
00000020: 9820 2e3d 38f2 84bc 2b06 2f3d 3796 dd3c
00000030: 3421 8ebb fa9b fdbc f453 653c 1107 d5bd
