examples/classifier_compression/simplenet_cifar.pth.tar (torch_old, 499438 bytes, 20 tensors)

momentum_buffer f4 [120, 400]
0	0xba7a78e5	-0.0009554758
1	0xba3da0e1	-0.00072337507
2	0x389f1d1e	7.587134e-05
3	0xb7a149fc	-1.9227147e-05
4	0xba361283	-0.00069455075
5	0xba684b42	-0.0008861312
6	0xba172bf0	-0.000576674
7	0xb7ff1498	-3.0407959e-05
8	0xba2b72b7	-0.0006540226
9	0xba69e6f7	-0.0008922661
10	0xb9c5a35b	-0.00037696477
11	0xb8928e8a	-6.9883725e-05
12	0x38d6c169	0.000102403406
13	0xb9cb4217	-0.00038768418
14	0xba19393e	-0.00058450166
15	0xbaa85710	-0.001284333
16	0xba23cdfe	-0.0006248652
17	0xb959108b	-0.00020700895
18	0x37bdc152	2.2620578e-05
19	0x3789cf98	1.6428341e-05
20	0xbac63e21	-0.0015124717
21	0xba267074	-0.0006349154
22	0xb67a8458	-3.7329937e-06
23	0x38962ace	7.1605304e-05
24	0x39b70392	0.0003490714
25	0xb9ea55a4	-0.00044695765
26	0xb940b639	-0.0001837843
27	0x3945c4c6	0.00018860688
28	0xb9d1ec42	-0.00040039612
29	0x39da87fe	0.00041681522
30	0xba2c16d6	-0.0006564682
31	0xba0476a4	-0.0005053079
32	0x38e9d006	0.00011149053
33	0x3927aea8	0.00015991426
34	0x3a6e1ad7	0.0009082979
35	0xba20bf7d	-0.00061320496
36	0xba31de29	-0.00067851186
37	0x3937d128	0.00017530157
38	0xb89f0344	-7.582319e-05
39	0x39fc1458	0.00048080343
40	0xba5fa842	-0.0008531847
41	0xba6153ee	-0.00085955753
42	0x385876e2	5.160913e-05
43	0xb8afa1fe	-8.374824e-05
44	0x3a748c35	0.0009328754
45	0xba3e11eb	-0.0007250595
46	0xba7b6ce5	-0.00095911167
47	0xb80b3269	-3.318713e-05
48	0x3909b52c	0.0001313283
49	0x3a66e4ce	0.0008807898
50	0x3a073d5e	0.0005158986
51	0x3a402bf4	0.0007330768
52	0x39b5bd18	0.00034663896
53	0x39aa99ac	0.0003253942
54	0x3a70e832	0.0009189873
55	0x3a5fae29	0.0008532727
56	0x3a705acc	0.0009168803
57	0x3a193c35	0.00058454584
58	0x3a42446a	0.0007410707
59	0x397e8fbc	0.00024276873
60	0x3a7952fd	0.00095109624
61	0x39b7587d	0.0003497041
62	0x3a35b071	0.0006930894
63	0x3a8b076a	0.0010607068
64	0x3978315f	0.00023669515
65	0x39a9b87e	0.0003237165
66	0x3a83ca35	0.0010054769
67	0x3a7ae7fa	0.00095713104
68	0x39e5d83d	0.00043839394
69	0x39c472cb	0.0003746956
70	0x39a0bcbf	0.00030658205
71	0x3a219113	0.00061632803
72	0x3a8fd59d	0.0010973696
73	0x3a71328f	0.0009200954
74	0xb955349c	-0.00020332861
75	0xb945eaa6	-0.00018874797
76	0xb961eecc	-0.00021546631
77	0xb93fc260	-0.0001828759
78	0xba317784	-0.00067698234
79	0x39bda00d	0.00036168136
80	0xb9f9e538	-0.00047663762
81	0xb9ae78a2	-0.00033277745
82	0xb998e8d3	-0.00029165167
83	0xba4afc98	-0.0007743328
84	0x386acf48	5.5982993e-05
85	0xb9ddb81c	-0.00042289577
86	0xb9b1da50	-0.00033922726
87	0xb9881cd7	-0.0002596143
88	0xb9cdd1c6	-0.0003925694
89	0x39bd5aaa	0.0003611644
90	0xba3abd39	-0.0007123533
91	0xb9b3b3a4	-0.00034275383
92	0x397c1259	0.00024039428
93	0xb95a3510	-0.00020809867
94	0x398bfde9	0.00026701324
95	0xba358cf0	-0.00069256034
96	0xb9aa9d0f	-0.00032541945
97	0x37e30de8	2.7066984e-05
98	0x3963c18a	0.00021720506
99	0x3a660ca9	0.000877569
100	0xb9aec7e9	-0.0003333681
101	0x389c4977	7.4523436e-05
102	0xb78a152c	-1.646074e-05
103	0x389ac88d	7.380648e-05
104	0x39a2ecb6	0.0003107541
105	0x3776f9d4	1.472091e-05
106	0x39105d6e	0.00013767715
107	0x3949a869	0.00019231591
108	0x39307aa2	0.00016830352
109	0x3a24b8ff	0.000628367
110	0xba979826	-0.001156573
111	0xba8490bd	-0.0010113936
112	0xb9fcd3a3	-0.00048222867
113	0xba19a219	-0.0005860641
114	0xba0ae4a3	-0.0005298352
115	0xb9a10478	-0.00030711642
116	0x3905e53b	0.00012769263
117	0x3a155e24	0.0005697927
118	0x3a3ffa84	0.00073234015
119	0x3a0823dc	0.0005193332
120	0x3b2f2673	0.0026725798
121	0x3b2df292	0.0026542288
122	0x3b06b90a	0.002055707
123	0x3afba49c	0.0019198838
124	0x3ae81196	0.0017705436
125	0x365cc440	3.2896787e-06
126	0x39f2b48e	0.0004629236
127	0x3946fbcc	0.00018976553
128	0xb81c9a6b	-3.733711e-05
129	0x37c6125d	2.361199e-05
130	0x38275af0	3.9900595e-05
131	0x38b0c838	8.4296276e-05
132	0xb99c7b6f	-0.00029846604
133	0xb9f9bfa0	-0.00047635753
134	0x384e7a0a	4.9227885e-05
135	0x38cebc9a	9.857975e-05
136	0x39043f53	0.00012612091
137	0xb9082546	-0.00012983856
138	0xb97c4f34	-0.00024062098
139	0xb9dbd0fb	-0.00041926638
140	0x394b6934	0.0001939878
141	0xb9057398	-0.0001272693
142	0xb9b4d36e	-0.00034489803
143	0x37b62e8c	2.1717766e-05
144	0xb93dd0e4	-0.00018102262
145	0xba55bb3a	-0.0008153204
146	0x39d001f8	0.00039674318
147	0x39ba072f	0.00035482037
148	0x39845c12	0.000252456
149	0x39bd03d1	0.00036051733
150	0xb9fe8a2b	-0.00048549598
151	0xb8b0242b	-8.399071e-05
152	0xb9796f94	-0.00023788057
153	0xb947da6d	-0.00019059489
154	0xb950b55f	-0.00019903992
155	0xba1c1284	-0.0005953687
156	0xb9c6955c	-0.00037876784
157	0xb98379ab	-0.00025076917
158	0xb97b2e11	-0.00023954386
159	0xb902c899	-0.00012472495
160	0xba2073cb	-0.000612077
161	0xb97088b6	-0.00022939112
162	0x3919ff48	0.00014686317
163	0xba1465f2	-0.0005660943
164	0xb893b270	-7.042743e-05
165	0xba83d718	-0.001005861
166	0xb9d69505	-0.0004092829
167	0xb9a55f2a	-0.00031542155
168	0xba1c666b	-0.0005966189
169	0x39247cd5	0.00015686762
170	0xb94da242	-0.00019610769
171	0x37a7892a	1.9971823e-05
172	0xb9d033e4	-0.00039711513
173	0xb991dd63	-0.000278215
174	0x3939b930	0.00017711963
175	0x3a6bf271	0.0009000665
176	0x3a31c7c6	0.0006781783
177	0x39d3b6e4	0.0004038132
178	0x398e2b9a	0.00027116836
179	0x3a37e19f	0.0007014516
180	0x3a182ebc	0.0005805304
181	0x39901f3c	0.00027489092
182	0x3957518b	0.00020534375
183	0x39b9e67a	0.00035457668
184	0x3a0d5996	0.00053920725
185	0x399a299e	0.00029404176
186	0x39a8b7b8	0.00032180338
187	0x39413b50	0.0001842801
188	0x3961f372	0.00021548363
189	0x3a03acc3	0.0005022997
190	0xb98095d0	-0.00024525682
191	0xb83c46a4	-4.4888482e-05
192	0x39853fb0	0.00025415188
193	0xb9947c66	-0.00028321444
194	0xb9c354c8	-0.00037256465
195	0xb94d09bf	-0.00019553954
196	0xb8359cb2	-4.3299697e-05
197	0x39bc6e02	0.00035940117
198	0x396fc5b8	0.00022866472
199	0x394cc0e0	0.00019526808
200	0xba71f910	-0.00092305336
201	0xb9da081a	-0.00041586236
202	0xb9a7adc2	-0.00031982182
203	0xb973700c	-0.00023216027
204	0xb9ab92ab	-0.00032724938
205	0xba2dfb98	-0.00066369167
206	0xb9c101b7	-0.00036813106
207	0xb98af067	-0.00026500525
208	0xb9a664bb	-0.00031737037
209	0xb8f2000e	-0.000115394694
210	0xba2e8422	-0.00066572626
211	0xb96ce9a9	-0.00022593759
212	0xb90d93ca	-0.00013501864
213	0xb9113bd9	-0.00013850573
214	0x39169f79	0.00014364523
215	0xb9251812	-0.00015744593
216	0xb8d689df	-0.00010229996
217	0xb90eeae3	-0.00013629677
218	0xb8b667e1	-8.697785e-05
219	0x399508d6	0.00028426078
220	0xb9e18763	-0.00043016215
221	0xb9384164	-0.00017571967
222	0xb9584176	-0.00020623751
223	0xb9083f84	-0.00012993632
224	0x389cb98a	7.473219e-05
225	0xb9fc5cc9	-0.00048134316
226	0xb9996122	-0.00029254804
227	0xb894fe57	-7.1045644e-05
228	0x3936e8c5	0.00017443586
229	0x38d5d086	0.00010195472
230	0xb9bad965	-0.00035638656
231	0xb5f75e80	-1.8430437e-06
232	0x393bea5e	0.00017921018
233	0x398b0869	0.00026518412
234	0x3954cee8	0.00020294974
235	0xb9585b44	-0.00020633364
236	0x379f7aba	1.9011426e-05
237	0x392026c9	0.00015273238
238	0x3989f1e2	0.00026310893
239	0x38f9b816	0.00011907534
240	0xb981cd70	-0.0002475786
241	0x382f0966	4.1732004e-05
242	0x394bcc81	0.00019435772
243	0x3904381f	0.00012609408
244	0x389e67d5	7.553367e-05
245	0xb9f547e2	-0.00046783598
246	0x396cba20	0.00022576051
247	0x3a0f08fb	0.0005456355
248	0x39b0603f	0.00033641045
249	0xb8a45358	-7.8356534e-05
250	0x386190f0	5.3779164e-05
251	0x3a2ea523	0.00066621805
252	0x39e89c44	0.00044366915
253	0x39ea555b	0.00044695553
254	0x39c6df32	0.00037931796
255	0xb818af54	-3.640291e-05

momentum_buffer f4 [10, 84]
0	0xb9bd8c06	-0.00036153215
1	0x3aaa437c	0.0012990083
2	0xbd2a6771	-0.041602556
3	0x3ae97f80	0.0017814487
4	0xbc22e22a	-0.009941617
5	0xbcbb3377	-0.022851689
6	0xbccef9b6	-0.025265556
7	0x39043e80	0.00012611784
8	0x3b8c4d35	0.0042816647
9	0xbc90767c	-0.017634623
10	0xbc2097e0	-0.009801835
11	0x3be069a0	0.006848529
12	0x3b75eb48	0.0037524272
13	0xbc96d98e	-0.018414285
14	0xbd205887	-0.039146926
15	0xbcac8bb2	-0.021062706
16	0xbd486cf2	-0.048932023
17	0xbca4cc04	-0.020116813
18	0x3b8a98f6	0.00422966
19	0xbd77e3c4	-0.06051995
20	0x3be8fa92	0.0071099484
21	0x3c09c588	0.0084089115
22	0xbb2b61d3	-0.0026150837
23	0xba8399e7	-0.0010040373
24	0x3c412598	0.011788748
25	0xbc7a557c	-0.01527917
26	0xbb20e0d6	-0.0024548075
27	0x3c9d21ed	0.019181216
28	0x3c2dac4c	0.010600161
29	0xbc809f4a	-0.015700955
30	0x3bf23916	0.007392059
31	0xbc61747d	-0.013760683
32	0xbc171aa5	-0.009222661
33	0xbc9450c5	-0.01810492
34	0xbb5fd4b4	-0.003415388
35	0xbd7acf3a	-0.061232783
36	0xbcc48dfc	-0.023993485
37	0xbd5162fc	-0.05111979
38	0xbc8e3fae	-0.01736435
39	0xbb6d4460	-0.0036204085
40	0x38f552f8	0.000116979645
41	0x3b280fc7	0.002564417
42	0x3ca9e2fc	0.020738117
43	0xbb9a2940	-0.0047046244
44	0xbd077b9e	-0.033076875
45	0xbbd21f7d	-0.006412445
46	0x3b452b94	0.003008579
47	0x3bc3ffb6	0.005981411
48	0xbd76b3fb	-0.060230237
49	0xbcad583c	-0.021160237
50	0x3c1fad90	0.00974597
51	0xbd6821f0	-0.05667299
52	0xb532e5f0	-6.664477e-07
53	0xbd1bdea0	-0.03805411
54	0x3ce64dd1	0.028113278
55	0x3d63d23a	0.05562041
56	0xbb2e096b	-0.0026555907
57	0x3cbab660	0.022792041
58	0xbb296fc0	-0.0025853962
59	0xbbf8713e	-0.007581859
60	0xbb2fedbb	-0.002684458
61	0x3c427c01	0.011870385
62	0x3d7eedc6	0.062238477
63	0xbc678e83	-0.014133099
64	0xbc8e2e06	-0.01735593
65	0xbcfd5b26	-0.030927252
66	0xbd1a258a	-0.037633456
67	0xbcf9380c	-0.030422233
68	0xbce1d8c8	-0.02756919
69	0xbc092c99	-0.008372449
70	0x3b8ca594	0.0042921994
71	0xbb8cc7a0	-0.004296258
72	0x3c28d328	0.01030425
73	0x3bea2bc8	0.0071463324
74	0xbceb8733	-0.028750991
75	0xbc14b9c0	-0.009077489
76	0xbc83a7e0	-0.01607126
77	0xbd3b0f44	-0.045668855
78	0xbba6a4b5	-0.0050855526
79	0xbb2a4a57	-0.0025984251
80	0xbb198df8	-0.0023430567
81	0x3b4e67f6	0.003149507
82	0x3c39c122	0.01133755
83	0xbc16df09	-0.009208449
84	0x39827522	0.00024882803
85	0x3bb8c864	0.005639123
86	0xbd8dd4f8	-0.06925386
87	0xbc1f5a9b	-0.009726192
88	0xba9dd8d0	-0.0012042765
89	0xbd4edbcb	-0.05050258
90	0x3a3cc958	0.00072016334
91	0xbca57fcc	-0.02020254
92	0xbb80d75f	-0.0039319242
93	0xbcc09144	-0.023506768
94	0xbc9ea99e	-0.01936799
95	0x3b03e676	0.002012638
96	0xbb05234a	-0.0020315223
97	0x3c1a64bf	0.009423434
98	0xbc0e9776	-0.008703103
99	0xbc762949	-0.015024492
100	0xbd2a80cd	-0.04162674
101	0xbbb57f04	-0.005538823
102	0xbbb59e3d	-0.005542545
103	0xbc50ef9a	-0.012752438
104	0x3ca19680	0.019725084
105	0x3bf6eb0e	0.007535345
106	0x3c84fd68	0.016234115
107	0x39f6e1d0	0.0004708902
108	0xbd2a1a06	-0.041528724
109	0xbc4df95e	-0.012571661
110	0x3a5e8968	0.0008489103
111	0x3b8f9a3b	0.0043823994
112	0x3ade73d9	0.0016971781
113	0xbd11dfa9	-0.03561369
114	0xb9b7c3f0	-0.00035050465
115	0xbc87de4d	-0.016585493
116	0x3c359cde	0.011084763
117	0xbcf4aa87	-0.02986647
118	0x3c332fe0	0.010936707
119	0xbc08489c	-0.008318093
120	0x3b054c0e	0.0020339522
121	0x3af859e4	0.0018947688
122	0x3bd430b6	0.0064755334
123	0xbd0e965b	-0.03481136
124	0x392489c1	0.00015691576
125	0xb9786d4c	-0.0002369184
126	0x3c154424	0.009110484
127	0x3cc30cdf	0.023809848
128	0xbce53162	-0.02797765
129	0xbc1e8385	-0.009674911
130	0x3ba8606e	0.0051384484
131	0x3ba97aaf	0.0051720957
132	0x3c29e521	0.01036957
133	0xbcae109b	-0.021248152
134	0xbcbb477b	-0.022861233
135	0xbc2e129c	-0.010624554
136	0x38d350b0	0.00010076293
137	0x3c093bd8	0.008376084
138	0xbb8e288e	-0.0043383306
139	0xbbea3974	-0.007147962
140	0x3b472052	0.0030384255
141	0xbb159998	-0.0022827145
142	0xbc946e0c	-0.01811888
143	0x3cd055f9	0.02543162
144	0x3c296b8d	0.0103405835
145	0xbcd59ee3	-0.02607674
146	0xbce1a341	-0.027543666
147	0x3b7be3cd	0.003843534
148	0xbc03e2f3	-0.008049714
149	0xbd6fface	-0.058588795
150	0x3bcd3ddd	0.006263478
151	0xbbab86c6	-0.005234572
152	0x3bbc92b2	0.005754792
153	0xbc8dfc85	-0.017332325
154	0xbb01c88d	-0.0019803375
155	0x384598b0	4.711066e-05
156	0xbca81415	-0.020517388
157	0xbbd2101e	-0.0064106127
158	0x3c266b27	0.010157383
159	0xbbff5cbe	-0.007793038
160	0xbcd61f6d	-0.026138032
161	0x3afdfebe	0.0019378287
162	0x3b9605f5	0.004578347
163	0xba7dde54	-0.00096843136
164	0x3b85f0e3	0.004087554
165	0xbd1cc504	-0.038273826
166	0xbc93c96b	-0.01804038
167	0xbc1241c4	-0.008926813
168	0x39e8d07c	0.0004440582
169	0x3d902442	0.07038166
170	0x3d387f88	0.0450435
171	0x3cc05a2d	0.0234805
172	0x3c86dfeb	0.016464194
173	0x3d42732a	0.04747311
174	0x3d45a824	0.048256055
175	0x3d8a2c3c	0.06746718
176	0x3c9adb8a	0.018903513
177	0x3d9e7bb9	0.07738442
178	0x3d6112b8	0.054949492
179	0x3cb318ee	0.021862473
180	0x3ceb79de	0.028744634
181	0xbc6f8b8d	-0.014620674
182	0x3e851684	0.2599374
183	0x3d5290cc	0.05140762
184	0x3d02e56f	0.031957086
185	0x3d30935e	0.04310929
186	0x3ca21504	0.019785412
187	0x3dfbaf6b	0.12289318
188	0x3e0a9c36	0.13536152
189	0xbadcdcfe	-0.0016850529
190	0x3d5d5c6e	0.054043226
191	0x3b837065	0.004011201
192	0x3c281388	0.010258563
193	0x3e23ca7a	0.15995207
194	0x3b2cc8fd	0.0026364916
195	0x3c06955a	0.008214319
196	0x3b40f71d	0.0029444166
197	0x3d867e82	0.06567098
198	0x3de0232b	0.10944208
199	0xbbd14aec	-0.006387105
200	0x3e46e6e8	0.19424021
201	0xbb9269ee	-0.004468194
202	0x3dbbe6be	0.0917487
203	0xbb49efd0	-0.0030813105
204	0x3da5b041	0.080902584
205	0x3dfbb210	0.12289822
206	0x3c78ef0c	0.015193712
207	0x3d817f78	0.06323141
208	0x3a87abb8	0.0010350859
209	0xb9b9b6d4	-0.00035422167
210	0x3d4ba082	0.04971362
211	0x3df410b2	0.11917247
212	0x3d97780c	0.07395944
213	0xbbbe49c4	-0.0058071334
214	0x3c60a954	0.013712246
215	0x3cdbf3e9	0.026849704
216	0x3d6a6d09	0.05723289
217	0x3c8c82be	0.017152186
218	0x3c997b71	0.01873562
219	0x3e0511fd	0.12995143
220	0xba87085c	-0.0010302174
221	0x3d43ecf4	0.047833398
222	0x3d016d83	0.03159858
223	0x3c80103a	0.015632737
224	0x3cbcc819	0.023044633
225	0x3dd978e7	0.106187634
226	0x3c9c242e	0.01906022
227	0x3cf52681	0.029925587
228	0x3ca8cba7	0.020604922
229	0x3d2ebe38	0.042661875
230	0x3e050f31	0.12994076
231	0x3ccbfff8	0.024902329
232	0x3d1db0e0	0.03849876
233	0x3d80273a	0.06257482
234	0x3d16b40a	0.036792792
235	0x3d5ca0a5	0.05386414
236	0x3cdd1864	0.02698917
237	0x3d83125f	0.063999884
238	0x3b33dc82	0.0027444665
239	0x3c76d47d	0.01506531
240	0x3d7ba75d	0.061438907
241	0x3de1c400	0.11023712
242	0x3d8e0f46	0.06936507
243	0x3d7cf320	0.0617553
244	0xbb3e92be	-0.0029079164
245	0x3e9ac81e	0.30230802
246	0x3c2cd81b	0.01054957
247	0x3cdbf92f	0.026852218
248	0x3de88c15	0.113548435
249	0x3e41c93b	0.1892442
250	0x3dcf2846	0.101151034
251	0x3d9e6b92	0.07735361
252	0xba653b36	-0.000874448
253	0xbd8d92ce	-0.069127664
254	0xbcc9b2c0	-0.024621367
255	0xbbbbd7b4	-0.005732501

momentum_buffer f4 [6, 3, 5, 5]
0	0x3da65482	0.08121587
1	0x3d93aa22	0.07210185
2	0x3d9cfdbd	0.07665584
3	0x3da23d61	0.07921863
4	0x3daeb775	0.085310854
5	0x3d8ea14a	0.06964357
6	0x3d8ce907	0.06880384
7	0x3d9728bd	0.07380817
8	0x3d9cfac4	0.07665017
9	0x3d8ad3c6	0.06778674
10	0x3dab3b45	0.08360914
11	0x3dbce1c5	0.092227496
12	0x3dc09761	0.09403873
13	0x3db80e2a	0.089870766
14	0x3db09374	0.086218745
15	0x3dc982da	0.09839411
16	0x3dcaef96	0.09908979
17	0x3dae5eb4	0.08514157
18	0x3dab964a	0.08378275
19	0x3d9cb128	0.076509774
20	0x3dd0afb5	0.101897635
21	0x3dca8ff1	0.09890736
22	0x3dafe04f	0.08587705
23	0x3da478be	0.08030842
24	0x3d8259a6	0.06364755
25	0x3dba5583	0.09098341
26	0x3da07480	0.078347206
27	0x3da71516	0.08158319
28	0x3daa1749	0.083052225
29	0x3da5bbac	0.08092436
30	0x3da57bf7	0.08080285
31	0x3d94ec11	0.072715886
32	0x3da24ddd	0.079250075
33	0x3dabe940	0.08394098
34	0x3d89080b	0.06690987
35	0x3db96d14	0.09054008
36	0x3dc91bb0	0.09819734
37	0x3dd4cb00	0.10390282
38	0x3dd0ad57	0.10189312
39	0x3dbb0e85	0.09133629
40	0x3dcd4000	0.10021973
41	0x3dd9679e	0.106154665
42	0x3dc8ead6	0.098104164
43	0x3dbe93a4	0.09305504
44	0x3da36915	0.07979027
45	0x3dc6e6ae	0.097119674
46	0x3dca1e22	0.09869029
47	0x3db7a158	0.08966321
48	0x3d9f67b4	0.07783452
49	0x3d59cd2a	0.053174175
50	0x3d5f21d4	0.05447562
51	0x3d429ff8	0.04751584
52	0x3d37f59f	0.044911977
53	0x3d368804	0.04456331
54	0x3d4ef958	0.05053076
55	0x3d691ee9	0.056914244
56	0x3d655ba0	0.055995584
57	0x3d5ae25a	0.053438522
58	0x3d60fd0e	0.05492883
59	0x3d427849	0.047477994
60	0x3da16a60	0.078816175
61	0x3dbb5bc7	0.091483645
62	0x3db71314	0.08939186
63	0x3daf80ae	0.085694656
64	0x3dab2040	0.083557606
65	0x3dcd86df	0.1003549
66	0x3de45e34	0.1115078
67	0x3dc7b837	0.09751933
68	0x3dbc83d4	0.09204832
69	0x3db0ff79	0.086424775
70	0x3dd8e8bd	0.10591266
71	0x3de34445	0.11097006
72	0x3dc682e4	0.09692934
73	0x3daed892	0.08537401
74	0x3d8cf134	0.06881943
75	0x3cb88ffa	0.02252959
76	0xbcb0846d	-0.02154752
77	0xbc907e01	-0.017638208
78	0xbae2b830	-0.0017297324
79	0xbcf9901a	-0.03046422
80	0x3c86a982	0.01643825
81	0xbcb31898	-0.021862313
82	0xbc2db3c1	-0.010601939
83	0xbb710260	-0.0036775097
84	0xbd213d16	-0.039364897
85	0x3d3a033d	0.045413245
86	0xbb1cbb60	-0.0023915395
87	0xb91dfbb0	-0.00015066448
88	0xbb378b56	-0.0028006635
89	0xbd27f0a2	-0.04100097
90	0x3d86edcb	0.06588324
91	0x3cb04e9e	0.021521863
92	0x3cb6d8eb	0.022320231
93	0x3cc5971e	0.02411991
94	0xbb4cb88e	-0.0031237933
95	0x3d9c4a2a	0.07631333
96	0x3d170184	0.03686668
97	0x3d185d5c	0.03719841
98	0x3d52eb90	0.05149418
99	0x3cee0610	0.029055625
100	0x3d34a6ec	0.0441045
101	0x3bfad282	0.007654489
102	0x3c5a621d	0.013329056
103	0x3d13637b	0.035983544
104	0x3c3c5387	0.011494524
105	0x3d0138ed	0.03154843
106	0xbb82c706	-0.0039910106
107	0x3c433e6a	0.011916736
108	0x3ce63d82	0.028105501
109	0xbac7ac98	-0.0015233932
110	0x3d74af4c	0.05973749
111	0x3c29c54b	0.01036198
112	0x3c84bede	0.016204294
113	0x3cca9aca	0.024732012
114	0xbbfddd00	-0.0077472925
115	0x3db5fd16	0.08886163
116	0x3d22c110	0.0397349
117	0x3d29feee	0.041502886
118	0x3d58457e	0.052800648
119	0x3cff377a	0.031154383
120	0x3dd3af94	0.10336223
121	0x3d805f9b	0.06268235
122	0x3d804e85	0.062649764
123	0x3da5ba44	0.08092168
124	0x3d82b7ce	0.06382714
125	0x3d363e2c	0.044492885
126	0x3c1d882f	0.009614988
127	0x3cac6fd8	0.021049425
128	0x3d409c58	0.0470241
129	0x3cdb0fc7	0.026740922
130	0x3d07effa	0.033187844
131	0xb995eba8	-0.00028595072
132	0x3caa88a4	0.020817108
133	0x3d269f8e	0.040679507
134	0x3c87451f	0.016512452
135	0x3d8a68ce	0.06758271
136	0x3ca60339	0.020265209
137	0x3d01e225	0.03170981
138	0x3d2db0ab	0.04240481
139	0x3c852580	0.016253233
140	0x3dc9ac14	0.098472744
141	0x3d51936f	0.051165994
142	0x3d70de2e	0.058805637
143	0x3d929d76	0.071589395
144	0x3d5d79f6	0.05407139
145	0x3df160f3	0.1178607
146	0x3d9ecd46	0.077539966
147	0x3da70b40	0.08156443
148	0x3dd176a5	0.10227708
149	0x3db51efb	0.088438
150	0xbc9e8bf4	-0.019353844
151	0xbcb860ba	-0.02250706
152	0xbb51b3f8	-0.003199814
153	0x3be5ae67	0.007009316
154	0x3c945f7d	0.018111939
155	0xbc0549ea	-0.008135298
156	0xbc091f19	-0.008369231
157	0xbc3e8d76	-0.011630407
158	0xbccad16e	-0.024758067
159	0xbcc696d1	-0.024241837
160	0x3ce2410d	0.02761891
161	0x3c499a62	0.012304874
162	0xbcc3a21e	-0.023881014
163	0xbd6d7abd	-0.05797838
164	0xbd8b9493	-0.06815448
165	0x3d60957e	0.054830067
166	0x3ccb30cc	0.024803542
167	0xbcc4fcd2	-0.024046335
168	0xbd7d01f1	-0.06176943
169	0xbd9a95c1	-0.075480945
170	0x3d336286	0.04379513
171	0x3cb8d22f	0.02256116
172	0xbc6916ce	-0.0142266285
173	0xbd40da6a	-0.047083296
174	0xbd4a268c	-0.049353167
175	0x3c442f2c	0.011974137
176	0x3c368760	0.011140674
177	0x3d11f130	0.035630405
178	0x3d32fae2	0.04369629
179	0x3d4c7304	0.049914375
180	0x3cd7916c	0.02631446
181	0x3cf21f0f	0.029555826
182	0x3d004d67	0.031323817
183	0x3c845166	0.016152095
184	0x3c812074	0.015762545
185	0x3d849cc8	0.06475216
186	0x3d567494	0.05235727
187	0x3cb0a2e8	0.021562055
188	0xbc2895c2	-0.010289611
189	0xbc823c93	-0.015898025
190	0x3dc47b0e	0.09593783
191	0x3d8fb53a	0.07016988
192	0x3cd93459	0.02651422
193	0xbc29e0ab	-0.010368506
194	0xbc97ec80	-0.01854539
195	0x3db7e3d3	0.08979001
196	0x3d8f795b	0.070055686
197	0x3d172594	0.03690107
198	0x3bee5b2a	0.007274051
199	0x3bfed9e4	0.0077774394
200	0x3dd995a4	0.10624245
201	0x3dd4f91b	0.103990756
202	0x3dff884c	0.124771684
203	0x3e01b020	0.12664843
204	0x3e01f0fa	0.12689582
205	0x3de9a534	0.11408463
206	0x3dea0658	0.11426991
207	0x3df2644e	0.11835538
208	0x3dd11ce4	0.102105886
209	0x3dc32c01	0.095298775
210	0x3e13cd5a	0.14433804
211	0x3e08fa8a	0.13376823
212	0x3de5f274	0.11227885
213	0x3d9f1a72	0.07768716
214	0x3d881cb9	0.066461034
215	0x3e2ea30b	0.17054383
216	0x3e16edda	0.1473917
217	0x3deafccd	0.11473999
218	0x3da04303	0.078252815
219	0x3d86e558	0.065867126
220	0x3e20b1de	0.15692851
221	0x3e0ecc77	0.13945185
222	0x3df034d0	0.11728823
223	0x3db90b11	0.09035314
224	0x3db4dca2	0.08831145
225	0xbd554280	-0.052065372
226	0xbd606517	-0.054783907
227	0xbda0bc60	-0.0784843
228	0xbd91d7e2	-0.071212545
229	0xbd0fc294	-0.035097674
230	0xbd01a6ce	-0.031653218
231	0xbd442db1	-0.047895137
232	0xbd8aba02	-0.067737594
233	0xbd775a6a	-0.06038896
234	0xbd5b9d4e	-0.053616814
235	0xbcda9f67	-0.026687337
236	0xbd5402d5	-0.051760513
237	0xbd850080	-0.06494236
238	0xbd19107c	-0.037369236
239	0xbd4fbb7d	-0.050715912
240	0xbd6c5a11	-0.05770308
241	0xbd064f88	-0.03279069
242	0xbd09767e	-0.03356027
243	0xbd03e6f6	-0.032202683
244	0xbd42960a	-0.04750637
245	0xbd611e4c	-0.054960534
246	0xbc15a8d8	-0.009134494
247	0xb822a400	-3.8776547e-05
248	0xbbcecc50	-0.006310977
249	0x3b2f6c20	0.0026767328
250	0xbd27d19a	-0.040971376
251	0xbd5b9c22	-0.053615697
252	0xbdb2187c	-0.08696076
253	0xbdb177be	-0.08665417
254	0xbd6d3d17	-0.057919588
255	0xbd1765cc	-0.036962315

momentum_buffer f4 [10]
0	0xbc7f6c55	-0.015589793
1	0xbc23ec5c	-0.010005083
2	0x3dd4b616	0.10386293
3	0xbd987c48	-0.0744558
4	0x3b6c4210	0.0036050119
5	0xbd48fa33	-0.049066734
6	0x3b7feb04	0.0039049992
7	0x3cee43ef	0.029085128
8	0x3c872617	0.016497655
9	0xbbff41bc	-0.0077898186

momentum_buffer f4 [84, 120]
0	0xb7ad82b3	-2.0684069e-05
1	0xbab44187	-0.0013752439
2	0xbaf3c84e	-0.0018599124
3	0xb999ced2	-0.00029336527
4	0x38961d9d	7.158073e-05
5	0xba850822	-0.0010149518
6	0xb816b6f3	-3.593317e-05
7	0x3a031f65	0.00050019316
8	0xb6fecb78	-7.5934768e-06
9	0xbaa58e88	-0.0012630979
10	0xb9ec2b6a	-0.00045045774
11	0x38a15493	7.6928314e-05
12	0xb9f668e7	-0.00046998935
13	0xb955d767	-0.00020393507
14	0x36453cfe	2.939079e-06
15	0xb967afb2	-0.00022095328
16	0xb9873692	-0.00025789865
17	0xb88d4535	-6.736295e-05
18	0xb985f3fa	-0.00025549514
19	0xb94677ba	-0.00018927353
20	0xb9509128	-0.000198905
21	0xbaac99d4	-0.0013168403
22	0x395118e2	0.00019941063
23	0xb8080592	-3.2430115e-05
24	0xb80e1371	-3.3873544e-05
25	0xba7fcd4e	-0.0009758071
26	0xb88ad533	-6.620064e-05
27	0x39d3982e	0.0004035844
28	0x39c1fdd6	0.0003700095
29	0xb9f33a50	-0.00046392018
30	0xba8ffc07	-0.0010985144
31	0xba58c1fc	-0.0008268652
32	0xba67b440	-0.000883881
33	0xb9b328ab	-0.0003417184
34	0xba0a58ce	-0.0005277515
35	0x38c2a1e2	9.280794e-05
36	0xb8971143	-7.203456e-05
37	0xb85047fc	-4.9658105e-05
38	0xbaf96e96	-0.001903015
39	0x39d65290	0.00040878775
40	0x389a40eb	7.355384e-05
41	0xba07ac63	-0.0005175529
42	0xba641e94	-0.0008702066
43	0xb796bd88	-1.796965e-05
44	0xba6f444c	-0.00091273035
45	0xb7e310c4	-2.7068316e-05
46	0xb8eccf76	-0.000112919995
47	0x39f7eff4	0.0004729029
48	0x398b9b1f	0.0002662772
49	0xba2ac8ed	-0.00065149256
50	0xba2e94c7	-0.0006659743
51	0x3a2d5e90	0.0006613517
52	0x390c03e3	0.00013352888
53	0xb99173a4	-0.00027742714
54	0xba1aa270	-0.0005898839
55	0xb98f4114	-0.00027323572
56	0x3563af00	8.481875e-07
57	0x3902fa50	0.00012491015
58	0x393f0821	0.00018218208
59	0xba5cb9f6	-0.00084200443
60	0x381a7788	3.6827783e-05
61	0x3a156313	0.0005698662
62	0xba052c4e	-0.0005080149
63	0xb7379880	-1.0943157e-05
64	0xba726ce2	-0.0009247792
65	0xb7f98b9b	-2.9748122e-05
66	0x3844b426	4.6897818e-05
67	0xba86bb5a	-0.0010279224
68	0x383b1c1c	4.4610453e-05
69	0xba34d624	-0.00068983645
70	0x37061934	7.9928905e-06
71	0xba46cf90	-0.000758403
72	0xba3f06ba	-0.0007287074
73	0xba1e6dcd	-0.0006043583
74	0x398c09be	0.0002671014
75	0x37fa266a	2.982021e-05
76	0xba82b7e3	-0.0009973015
77	0xb82fc68f	-4.1908173e-05
78	0x394c9396	0.00019509936
79	0xba30ec71	-0.00067490997
80	0x392beec1	0.00016396774
81	0xba73f9a5	-0.0009306914
82	0x38031825	3.125532e-05
83	0x3931e9b0	0.00016967091
84	0x39dd67b9	0.00042229684
85	0x375002fe	1.2398463e-05
86	0x38f0b7de	0.0001147834
87	0x3870b11b	5.73854e-05
88	0xb880e832	-6.1467654e-05
89	0x3865939c	5.4735327e-05
90	0xb8a08450	-7.65404e-05
91	0xb9e73da6	-0.00044105685
92	0xbad4ef00	-0.0016245544
93	0xbaa3e3ff	-0.0012503861
94	0xb98c10ac	-0.00026715302
95	0x39188224	0.00014544331
96	0x39c3cb9e	0.00037345005
97	0x38c477b6	9.368306e-05
98	0xba1f3b08	-0.0006074165
99	0x39d58400	0.00040724874
100	0xb9956c9a	-0.0002850041
101	0x37935c8c	1.7566861e-05
102	0xbae20719	-0.0017244547
103	0xba5e0e20	-0.0008470733
104	0xb7a189c4	-1.9256848e-05
105	0xbaa3bc8c	-0.0012492104
106	0xbab8dfb4	-0.0014104755
107	0xb886244f	-6.396381e-05
108	0x393a6e19	0.00017779357
109	0xbaec31ac	-0.0018020174
110	0xb9376e38	-0.000174933
111	0x3930b030	0.00016850303
112	0xbaaa65fa	-0.0013000362
113	0x3a00f9a8	0.0004920014
114	0xba675c16	-0.00088256726
115	0x39c0d7e8	0.00036781956
116	0xba3162c6	-0.00067667325
117	0xb95d2d75	-0.00021093136
118	0xba1b015a	-0.0005912982
119	0xb8b043e1	-8.4049774e-05
120	0x39ceb534	0.0003942639
121	0xbc509149	-0.012729951
122	0xbbf0af5d	-0.0073451237
123	0x3b3cb2ef	0.0028793176
124	0xbc06c46d	-0.0082255425
125	0x3c854e61	0.016272726
126	0xb67dfc0c	-3.7846648e-06
127	0x3bdbc4e8	0.0067068227
128	0x375d1460	1.317737e-05
129	0x3bce5af6	0.0062974645
130	0xba8ce274	-0.0010748641
131	0xbc13f114	-0.0090296455
132	0xbb22f950	-0.002486784
133	0x3b0a6b1c	0.002112097
134	0x3af1f88a	0.0018460911
135	0xbbe2482c	-0.006905576
136	0x3b6206f4	0.0034489008
137	0xbb0eef69	-0.002181018
138	0xbbfb2516	-0.007664333
139	0xbc8e513c	-0.01737272
140	0xbb2df1e6	-0.0026541888
141	0xbb5754f4	-0.0032857032
142	0x398075fa	0.00024501962
143	0x3a3b9e1e	0.0007157045
144	0xbaa83700	-0.0012833774
145	0x3b7b390f	0.003833357
146	0xbc4edb92	-0.012625592
147	0xba35c008	-0.0006933217
148	0x3c2ecffe	0.010669706
149	0xba81b944	-0.0009897132
150	0x3c292ecc	0.010326099
151	0xbbd9968a	-0.00664026
152	0xbc34bae1	-0.0110308835
153	0x3b663a94	0.003513013
154	0x3c12811f	0.008941918
155	0x3c3fd29b	0.011707927
156	0x381cf58e	3.742199e-05
157	0x3ae8d66d	0.0017764099
158	0xbb4ef6ca	-0.0031580203
159	0xbb47233e	-0.0030385996
160	0x3c65c648	0.014024325
161	0x3c38bcfc	0.011275526
162	0xbc3b6db1	-0.011439727
163	0x3882571a	6.215107e-05
164	0x3c503efd	0.01271033
165	0xbb1c0fcf	-0.0023813134
166	0xbb673123	-0.003527709
167	0xbc7bdb39	-0.015372091
168	0xbbe1cc1c	-0.006890787
169	0x3c08103f	0.008304655
170	0xbc2b76cd	-0.010465336
171	0x3a206c2c	0.00061196345
172	0x3bf4172c	0.0074490514
173	0xbc072224	-0.008247886
174	0x3c502966	0.012705183
175	0xbb9ebeab	-0.0048445067
176	0xbc2f7ba7	-0.010710633
177	0xba89387c	-0.0010469104
178	0x3c2bffbc	0.010497984
179	0xbab042ae	-0.0013447606
180	0x3868ec44	5.553315e-05
181	0x3c93bfbd	0.018035764
182	0xbc855c09	-0.016279237
183	0xbb5dfe51	-0.0033873508
184	0xb9f0c6c8	-0.0004592447
185	0xbad2758e	-0.0016056763
186	0x3b287029	0.0025701618
187	0xbc575b20	-0.0131442845
188	0xbb80601a	-0.003917706
189	0x3cb6dbd8	0.022321627
190	0xb6ebd76d	-7.0286246e-06
191	0xbc4b10ec	-0.012394171
192	0xbc082fb7	-0.008312157
193	0x3b97f8fc	0.0046378355
194	0xbc7d9556	-0.015477499
195	0xbb8652f0	-0.0040992424
196	0x3cb72853	0.022358095
197	0x3c01c000	0.0079193115
198	0xba0d2f7f	-0.00053858006
199	0x3bd3cc69	0.0064635766
200	0x3c97a007	0.018508924
201	0x3b75286c	0.0037408127
202	0xbc33bfec	-0.010971051
203	0xbbed67ce	-0.0072450405
204	0xbc3770e8	-0.011196353
205	0xbb302ffb	-0.0026884067
206	0x3a3d9658	0.0007232181
207	0xbb8d50d8	-0.004312616
208	0xbb341cd8	-0.0027483013
209	0x3cdafaa4	0.026730843
210	0xbb8808ce	-0.00415144
211	0xbc470856	-0.012147984
212	0xbd36ad88	-0.044599086
213	0x3c705cdc	0.014670577
214	0x3b5384e0	0.0032275245
215	0x3ca0e338	0.019639596
216	0xbb0c18d8	-0.0021377113
217	0x3bbe34a2	0.005804614
218	0xbc5b379a	-0.013379956
219	0x3af27258	0.0018497212
220	0xb9830910	-0.0002499302
221	0x3ba75cac	0.005107483
222	0x3bf82e4a	0.0075738775
223	0x3a9b0572	0.0011827184
224	0xbcd74f37	-0.02628289
225	0xbc433c6e	-0.011916263
226	0xbcc06994	-0.023487844
227	0xbbb0c7f9	-0.0053949323
228	0x3c6ae9f8	0.014338009
229	0xbc803f01	-0.015655043
230	0xbb33bbe8	-0.0027425233
231	0xb7f03080	-2.8632814e-05
232	0xbb8153c4	-0.003946753
233	0xbbd10651	-0.006378927
234	0xbca924c8	-0.020647421
235	0xbc8c5016	-0.017128032
236	0xbc86134f	-0.016366629
237	0x3a36c9b0	0.0006972803
238	0xbb0a250b	-0.0021079208
239	0xba548392	-0.00081067637
240	0xbaaa6b70	-0.001300199
241	0x3a47aa30	0.00076166075
242	0xbcdb88b5	-0.026798585
243	0xbc314ef6	-0.010822048
244	0x3b87b998	0.0041419975
245	0xbc701cdd	-0.014655319
246	0x38696b33	5.5651366e-05
247	0xbc707a72	-0.014677631
248	0xbb36fc66	-0.0027921437
249	0xbcfe31b0	-0.031029552
250	0xbcb6b44c	-0.02230277
251	0x3b50c53e	0.0031855847
252	0x3cb2fcf5	0.021849135
253	0xbb55c8a0	-0.0032620803
254	0x3ba98630	0.005173467
255	0xbb28e4cb	-0.0025771137

momentum_buffer f4 [6]
0	0xbd845efe	-0.06463431
1	0xbdaaf588	-0.083476126
2	0xbed7a15c	-0.42115295
3	0x3e338131	0.17529751
4	0xbd4c163f	-0.049825903
5	0xbe3eeab1	-0.18644215

momentum_buffer f4 [16]
0	0x3b3e3ec8	0.002902912
1	0xbc56726d	-0.013088805
2	0xbc5afb56	-0.013365587
3	0xbc7cb73e	-0.015424548
4	0xbdadbe0c	-0.08483514
5	0x3d7d0e1e	0.06178104
6	0x3ce89e84	0.028395899
7	0xbdfa5108	-0.12222487
8	0xbd913c93	-0.07091632
9	0xbc34b5ec	-0.011029702
10	0xbd327d22	-0.043576367
11	0x3db86696	0.09003942
12	0x3d0279cc	0.031854436
13	0x3d89a999	0.06721801
14	0x3d99aaf5	0.075033106
15	0xbd7d0296	-0.061770044

momentum_buffer f4 [16, 6, 5, 5]
0	0x3aa6db88	0.001273022
1	0x3ba4ca01	0.0050289636
2	0xbb87824e	-0.0041354066
3	0xbc16bbf8	-0.009200089
4	0xbcc6ebca	-0.024282355
5	0x3c175501	0.009236575
6	0x3a4cc5a8	0.00078114355
7	0xbb80a7d2	-0.0039262557
8	0x3be47ce0	0.006972894
9	0x3bf5e114	0.007503638
10	0x3c7aefc0	0.01531595
11	0x3a4d6180	0.0007834658
12	0x3b476261	0.0030423629
13	0x3c2dcaf0	0.010607466
14	0x3b90eedd	0.004423006
15	0xbb96b56f	-0.0045992653
16	0xbbcda374	-0.0062755886
17	0xbc037b25	-0.008024965
18	0xbb8d1d8d	-0.0043065012
19	0xbc5138bf	-0.012769877
20	0x3a6ea230	0.00091031473
21	0x3b0a05e4	0.002106064
22	0x3ab4fe00	0.0013808608
23	0xbc012aee	-0.00788377
24	0xbc845610	-0.016154319
25	0x3be42280	0.0069621205
26	0x3c0473b0	0.008084223
27	0x3ba4df0c	0.005031472
28	0x3bf9b8dc	0.007620914
29	0x3c4d6dbc	0.01253837
30	0x3b04aed0	0.0020245798
31	0xbb253b38	-0.00252123
32	0xbafe4840	-0.0019400194
33	0x3b4284c8	0.0029681195
34	0x3c22878a	0.00992001
35	0xbbe761b4	-0.0070612077
36	0xbbbd857a	-0.005783734
37	0xbb2870e8	-0.0025702063
38	0x3b403d00	0.0029333234
39	0x3b3cb160	0.0028792247
40	0xb7413800	-1.1516735e-05
41	0x3c39e0ca	0.011345098
42	0x3cb35ab9	0.021893846
43	0x3cb5d7c4	0.022197612
44	0x3cb49251	0.022042425
45	0x3c7804fe	0.015137909
46	0x3d094492	0.03351266
47	0x3d292d82	0.041303165
48	0x3d2aaba7	0.041667607
49	0x3d2c6d88	0.042096645
50	0xbb7f7b60	-0.003898345
51	0x3ccb2d9a	0.024802018
52	0x3d4302b1	0.04760999
53	0x3ced7aaf	0.028989164
54	0x3d0213c4	0.03175713
55	0x3b9d2bf8	0.0047965012
56	0x3d813a9a	0.063100055
57	0x3d62ef1d	0.055403817
58	0x3cb43ae9	0.022000747
59	0x3bb6861b	0.005570186
60	0x3ce5ad58	0.028036758
61	0x3d9bef51	0.07614005
62	0x3d87fe64	0.06640318
63	0x3cb84534	0.022493936
64	0x39c42b20	0.00037416164
65	0x3d1ddf10	0.038542807
66	0x3d892593	0.0669662
67	0x3d3b01fb	0.045656186
68	0x3cbe9442	0.023264054
69	0x3be732a4	0.0070555974
70	0x3ce6a40f	0.028154401
71	0x3d39aaf1	0.045329038
72	0x3ca1a2ad	0.01973089
73	0x3c78ac5a	0.015177811
74	0xbc68a9bc	-0.014200624
75	0x3acf0458	0.0015794141
76	0x3cc6ef81	0.024284126
77	0x3ca316f5	0.019908408
78	0x3b43afec	0.0029859496
79	0x3b693034	0.003558171
80	0x3cc914e4	0.024546094
81	0x3d23a5f4	0.039953187
82	0x3d0cc2ce	0.034365468
83	0x3ca7d205	0.020485887
84	0xba95428e	-0.0011387633
85	0x3cfdb6dc	0.030970983
86	0x3d450fdb	0.048110824
87	0x3d2ef14b	0.042710584
88	0x3d219f6e	0.039458685
89	0x3ce8633a	0.028367627
90	0x3d385f06	0.045012496
91	0x3cfd0356	0.03088538
92	0x3d0534fe	0.03252124
93	0x3d104468	0.035221487
94	0x3cdede5a	0.027205635
95	0x3ccd5fa8	0.025070027
96	0x3d102cb1	0.03519887
97	0x3cd2e214	0.025742568
98	0x3bceef6c	0.0063151624
99	0x3c42527f	0.011860489
100	0x3d00a373	0.031405877
101	0x3cdfa73b	0.027301421
102	0x3cb5c7e5	0.022190044
103	0x3c9aeb88	0.018911138
104	0x3c5b7492	0.013394492
105	0x3cbfff1c	0.023437075
106	0x3ca69e7a	0.02033924
107	0x3c6ad94d	0.014334035
108	0x3c8616ac	0.016368233
109	0x3c7dfd8e	0.015502347
110	0x3cfb3325	0.030664036
111	0x3cb6cd6d	0.022314752
112	0x3c3eeb30	0.011652753
113	0x3c5b2caa	0.013377348
114	0x3cbd719a	0.023125459
115	0x3d09adb4	0.03361292
116	0x3cca1aba	0.024670947
117	0x3c522ba3	0.012827787
118	0x3be4d7c5	0.0069837295
119	0x3c83c4a8	0.016084984
120	0x3cc83fd6	0.024444502
121	0x3cdc9ba5	0.026929686
122	0x3c4be038	0.012443595
123	0x3abbdb29	0.0014332283
124	0x3b3df31c	0.0028984016
125	0xbc2b8482	-0.010468604
126	0x3c807d52	0.015684757
127	0xbc4bfa5a	-0.012449825
128	0x3ca89410	0.020578414
129	0xbb931174	-0.0044881646
130	0xbbe5ac14	-0.0070090387
131	0x3c05e52e	0.0081723165
132	0xbc0178d2	-0.007902341
133	0x3cd92da8	0.026511028
134	0xbb63fdd8	-0.0034788754
135	0x3ba282c4	0.004959436
136	0x3c278f11	0.010226981
137	0xbb9a1e4f	-0.00470332
138	0x3cf6adf5	0.030112246
139	0x3c903901	0.017605307
140	0x3c129ffe	0.008949278
141	0x3c89dbcf	0.016828446
142	0xba962100	-0.0011453927
143	0x3ce246ff	0.027621744
144	0x3ce653a0	0.028116047
145	0x3a84b150	0.0010123644
146	0x3bb24d17	0.0054413187
147	0x3baad24a	0.0052130567
148	0x3c166428	0.009179153
149	0x3cb904b2	0.022585247
150	0xbd4ef5c2	-0.05052734
151	0xbd3674b4	-0.04454489
152	0xbd1e1178	-0.03859088
153	0xbd292800	-0.041297913
154	0xbd73f3e2	-0.059558757
155	0xbd39a754	-0.045325592
156	0xbcfa3f06	-0.03054763
157	0xbca3e6e8	-0.020007566
158	0xbc964eb4	-0.018348075
159	0xbced1602	-0.028941158
160	0xbbf9ee7a	-0.0076273056
161	0x3acad088	0.0015473524
162	0x3b7a1ac0	0.0038162917
163	0x3caf6233	0.02140913
164	0x3c282adc	0.010264125
165	0x3bf7b418	0.0075593106
166	0x3c9b3d57	0.018950148
167	0x3c9153e9	0.017740207
168	0x3c4f854a	0.012666056
169	0x3ae2505c	0.0017266381
170	0xbc6c5dde	-0.014426677
171	0xbc04035d	-0.0080574425
172	0x3c3070ca	0.0107690785
173	0x3c8ce921	0.017201008
174	0xbb911ea4	-0.0044287015
175	0xbcb571ff	-0.022149084
176	0xbc01924c	-0.007908415
177	0xbc1e01f6	-0.009644022
178	0xbcc1f733	-0.023677444
179	0xbd27e4c2	-0.040989645
180	0xbc76f452	-0.015072899
181	0xbb9a79c2	-0.0047142217
182	0xbc34e4c8	-0.011040874
183	0xbca8faa0	-0.02062732
184	0xbd05d76d	-0.03267615
185	0xbc2e1ee0	-0.010627478
186	0x3bc9a4a0	0.006153658
187	0x3b3adce2	0.0028513004
188	0xbc03f138	-0.0080531165
189	0xbc92f256	-0.01793782
190	0xbc9f373f	-0.019435523
191	0xb9661ee0	-0.00021946011
192	0x3adb0380	0.0016709417
193	0xbc41fda2	-0.011840256
194	0xbca67630	-0.020320028
195	0xbcb45925	-0.022015164
196	0xbbc5d052	-0.0060367966
197	0x3b05c1d6	0.0020409725
198	0xbc366b80	-0.011134028
199	0xbc89df03	-0.016829973
200	0xbd1c40f5	-0.038147885
201	0x3bb7e804	0.005612375
202	0x393c9d00	0.00017987564
203	0xbcb52faa	-0.022117455
204	0xbcf354bc	-0.02970349
205	0xbd0e4c08	-0.034740478
206	0xbc9e0688	-0.019290224
207	0x3a1bac40	0.0005938448
208	0x3b7d81d8	0.003868213
209	0xbc34006c	-0.010986429
210	0xbcdadd38	-0.026716813
211	0xbc1e1bd4	-0.009650189
212	0xbb806a3c	-0.003918914
213	0xbc3a76e4	-0.011380885
214	0xb89f2c40	-7.589953e-05
215	0xbd0d84ea	-0.034550585
216	0x3a933520	0.0011231042
217	0x3c22fe7c	0.009948369
218	0xba718240	-0.0009212829
219	0xbc12dfb2	-0.008964466
220	0xbd34d8a8	-0.044151932
221	0xbc36151a	-0.011113429
222	0xbc09e2be	-0.008415876
223	0xbbc8890a	-0.006119852
224	0x3bb7e3e0	0.0056118816
225	0xbb252dcc	-0.00252043
226	0xbd1747b4	-0.036933616
227	0xbcb162a0	-0.021653473
228	0x3c854ad4	0.016271032
229	0xbc8b4317	-0.016999764
230	0x3c5dd1f3	0.013538825
231	0xbc422e96	-0.011851927
232	0xbc39ad7e	-0.011332868
233	0xbbad9950	-0.0052978173
234	0x3cbcaf8e	0.02303293
235	0x3c326dfa	0.010890478
236	0x3bd43872	0.0064764554
237	0x37be9c00	2.2722408e-05
238	0xbc219478	-0.009862058
239	0xbc34ccac	-0.011035126
240	0xbbe20516	-0.006897579
241	0x3c992a41	0.018696906
242	0x3d0bb0ee	0.03410428
243	0x3c917f85	0.017761001
244	0x3be84a00	0.0070888996
245	0x3ca53524	0.020166941
246	0xba005fa0	-0.0004897062
247	0x3b83a8be	0.0040179184
248	0x3bc319f3	0.005954021
249	0x3ce6e4ae	0.028185215
250	0xbb310ef4	-0.002701697
251	0x3ba24f84	0.0049533267
252	0xbb7d947f	-0.0038693247
253	0x3a9c525b	0.0011926399
254	0x3c6e8e5c	0.014560308
255	0xbc1acd20	-0.00944832

momentum_buffer f4 [84]
0	0xb9c88428	-0.00038245437
1	0xbc579aa2	-0.013159426
2	0xbc389ed4	-0.011268336
3	0x3b82c9f5	0.0039913603
4	0x3c27f50f	0.010251298
5	0xbc6ee4ca	-0.014580915
6	0xbc97d182	-0.018532518
7	0xbcc1caa7	-0.023656202
8	0xbaee178e	-0.0018164979
9	0x3c7369b6	0.014856746
10	0x3b8c92d9	0.0042899665
11	0xbb187c48	-0.0023267437
12	0x3c488987	0.01223982
13	0x3b7e5cfe	0.0038812752
14	0xbcda14f7	-0.026621325
15	0x3bf58a02	0.0074932585
16	0xbbe3e894	-0.0069552157
17	0x3aab055e	0.0013047864
18	0xbc03873f	-0.008027851
19	0x3c042be3	0.008067104
20	0x3c1b3042	0.009471955
21	0xbab22432	-0.0013591109
22	0xbccf1234	-0.025277235
23	0x3a6826ed	0.0008855898
24	0x3c06086b	0.008180718
25	0x3bbfb8e0	0.0058508962
26	0x39f58595	0.00046829568
27	0xbae0891d	-0.0017130707
28	0xbb2f80c1	-0.0026779624
29	0xbb066c00	-0.002051115
30	0x3d4081e5	0.046998877
31	0x3bf5d20e	0.007501847
32	0xbc3239ba	-0.010878021
33	0xba9296ec	-0.0011183894
34	0x3c976ade	0.018483575
35	0xba802910	-0.0009777863
36	0xbc2919c9	-0.010321089
37	0x3d0cc07c	0.034363255
38	0xbcac9b2f	-0.021070091
39	0x3c90a1f0	0.017655343
40	0x36dbc840	6.5500208e-06
41	0x3b15f119	0.00228793
42	0x3a890270	0.0010452997
43	0xbb507af4	-0.0031811567
44	0xbc4f3144	-0.012646023
45	0xbb83c7bf	-0.0040216143
46	0xbc8e79ab	-0.017392
47	0xba9bceb8	-0.0011887169
48	0x3bd1cbb1	0.0064024557
49	0xbbcde9ce	-0.006283975
50	0xbc3e4286	-0.01161254
51	0x3c2cef4c	0.0105551
52	0x384da234	4.9026872e-05
53	0x3c5408b8	0.012941532
54	0xbca8d62e	-0.020609941
55	0xb91f6eb8	-0.00015204668
56	0xba4e85d2	-0.0007878217
57	0x3c7caac8	0.015421577
58	0x3bb7584d	0.005595243
59	0xbaee3348	-0.0018173242
60	0xbcc38e54	-0.023871578
61	0xbc560de4	-0.013064835
62	0x3c8d5852	0.017254028
63	0x3c4e8335	0.012604524
64	0x3c48e0e6	0.012260651
65	0xbc84325c	-0.016137294
66	0xbbba321f	-0.0056822444
67	0x3c24bca7	0.010054744
68	0xb89d40f0	-7.498439e-05
69	0xb9cd3e00	-0.0003914684
70	0x3a0d83c1	0.0005398356
71	0xbc3b73ba	-0.011441166
72	0x3c3191b1	0.010837958
73	0x3ce9979d	0.028514678
74	0xbc9b4ba2	-0.018956963
75	0xbc073f52	-0.008254843
76	0xbb383ca7	-0.0028112323
77	0x3cb538f4	0.022121884
78	0x3c2fc806	0.010728842
79	0xbc278f2c	-0.010227006
80	0x3c8060dd	0.015671188
81	0xbcb9fd2c	-0.02270373
82	0xbbf3a525	-0.0074354582
83	0x3cb24589	0.021761673

momentum_buffer f4 [120]
0	0xb7359908	-1.0824071e-05
1	0xbb2a1655	-0.0025953252
2	0xbbae99f6	-0.005328412
3	0xbb8abc1c	-0.00423385
4	0xbbc1ed69	-0.005918194
5	0x3ae4d05e	0.0017457118
6	0x383dc68a	4.5246015e-05
7	0xbc46150e	-0.012089981
8	0xbb785327	-0.003789136
9	0xbc3a2fee	-0.011363966
10	0x39981a78	0.0002901142
11	0x3c12c92f	0.008959099
12	0xbb1903c6	-0.0023348196
13	0xba8f27c6	-0.0010921888
14	0x3bd59082	0.006517471
15	0x3ca586ab	0.020205816
16	0x3c5b8189	0.013397583
17	0x3c9303a2	0.017946068
18	0x3c48fbba	0.012267048
19	0x3c40d9f0	0.01177071
20	0x3c4a231d	0.012337473
21	0x3c89c4c8	0.016817465
22	0x3af2ba34	0.0018518628
23	0x388ef0b8	6.815925e-05
24	0x3b1e437b	0.0024149108
25	0xbc7594d9	-0.014989101
26	0x3c825974	0.015911795
27	0xbb95da6c	-0.004573157
28	0x3b0251a0	0.0019885078
29	0xbbfb6e7e	-0.007673084
30	0xbaa1c5c4	-0.0012342264
31	0x3c1074ae	0.008816881
32	0xbc9f48c6	-0.01944388
33	0xbbb864b7	-0.0056272405
34	0x3bd91faf	0.0066260914
35	0x3bf669dc	0.0075199436
36	0xbaa5bfd5	-0.0012645671
37	0x398cd158	0.00026858854
38	0xbc9cdbf8	-0.019147858
39	0x3c0e355f	0.008679717
40	0x3c875a96	0.016522687
41	0xba40b218	-0.0007350757
42	0xbc19212d	-0.009346289
43	0x37e66b14	2.7467999e-05
44	0xbc6a399a	-0.01429596
45	0x3c7b4629	0.015336552
46	0x3c28d2ea	0.010304192
47	0x3ba544ec	0.0050436165
48	0xbaf9e256	-0.0019064646
49	0xbb5b2d6a	-0.0033443817
50	0x3cc5191e	0.024059828
51	0xb9ed52f0	-0.00045265956
52	0x3be5ffbe	0.0070190122
53	0x3a9a7944	0.0011785408
54	0x39c3b0b1	0.00037324944
55	0xbbf239cb	-0.0073921434
56	0x3ac4588a	0.001498
57	0xbb463190	-0.0030241944
58	0xbb944bfe	-0.0045256605
59	0xbc4f0cc1	-0.012637318
60	0x3796280e	1.7900045e-05
61	0xbbe0f70a	-0.006865387
62	0x3c6bd8a8	0.014394917
63	0xbb21a524	-0.0024665082
64	0xbb84d88c	-0.0040541347
65	0x3afb2bc5	0.0019162825
66	0x3b8da82e	0.004323027
67	0xbce2c047	-0.027679576
68	0x3c1a98ac	0.009435814
69	0x3a095734	0.00052391295
70	0xb7b628de	-2.1715121e-05
71	0x3bec8620	0.0072181374
72	0xbb5dcb68	-0.0033843163
73	0x39bc92a0	0.00035967398
74	0xbba04574	-0.004891092
75	0xbb8de3de	-0.0043301424
76	0xbbdf8aeb	-0.0068219802
77	0xbbd57804	-0.006514551
78	0xbaaaed9c	-0.0013040784
79	0x3b2c240c	0.0026266603
80	0xbc3272e1	-0.010891647
81	0x3c0ede4d	0.008719993
82	0x3cb6ff57	0.022338552
83	0xbc4e5195	-0.012592693
84	0x3c3363ed	0.010949117
85	0x3bebca52	0.0071957493
86	0xbb968092	-0.0045929635
87	0x3cc4e8a8	0.02403672
88	0xbb949e86	-0.004535499
89	0xbb6e5d19	-0.0036371408
90	0xbaa0c615	-0.0012266064
91	0xb8066000	-3.2037497e-05
92	0x3a9efb58	0.001212935
93	0xbccdf4f2	-0.025141213
94	0x39eb6220	0.00044895802
95	0xbc0c253b	-0.008553798
96	0xbc047755	-0.008085092
97	0xbaf513b8	-0.0018697893
98	0xbc9909f6	-0.018681508
99	0x3acd2736	0.0015651945
100	0x3c11a361	0.00888905
101	0x3ca3d11c	0.019997172
102	0xbc624255	-0.01380976
103	0xbbba3344	-0.005682381
104	0x3c4c1099	0.012455129
105	0xbc2764b4	-0.010216881
106	0xbc5aad70	-0.013347015
107	0xbc36b22b	-0.011150877
108	0x3c694481	0.014237524
109	0xbc3c6f69	-0.011501172
110	0x3c370ed5	0.01117297
111	0xba95ecc3	-0.0011438358
112	0x3be1bb14	0.0068887565
113	0xbc1effd2	-0.009704547
114	0xbc07fc3e	-0.008299885
115	0x3bd0300d	0.0063533843
116	0x3c13fb38	0.009032063
117	0xbb894249	-0.00418881
118	0xbb46ffc6	-0.0030364855
119	0x3ac57123	0.0015063625

module.conv1.weight f4 [6, 3, 5, 5]
0	0x3d8e4a17	0.06947725
1	0x3dcffb11	0.10155309
2	0x3d8dfadf	0.069326155
3	0x3cd5452f	0.026033966
4	0x3e410837	0.1885079
5	0x3ec920f6	0.3928296
6	0x3f1ab5ba	0.6043354
7	0x3f399281	0.7248917
8	0x3f220c7d	0.63300306
9	0x3f0e776a	0.5565096
10	0xbba2adb0	-0.004964553
11	0x3ccd5669	0.025065618
12	0xbc92115c	-0.017830543
13	0xbe180134	-0.14844209
14	0xbe2862d1	-0.16443945
15	0xbe09cf9f	-0.13458107
16	0x3e04a754	0.12954456
17	0xbe2a95b3	-0.16658668
18	0xbeaf4587	-0.34232733
19	0xbe0f5862	-0.13998559
20	0xbe3a2952	-0.18179825
21	0xbdff0ab3	-0.124532126
22	0xbe76aa7c	-0.24088472
23	0xbefdd795	-0.4957854
24	0xbe786cba	-0.24260226
25	0xbecf26d2	-0.40459305
26	0xbe31a312	-0.17347363
27	0xbe739aaf	-0.23789476
28	0xbebab1d2	-0.3646379
29	0xbe13be9a	-0.14428177
30	0xbd19a895	-0.037514288
31	0x3ebf1ae6	0.3732521
32	0x3ee36173	0.44410285
33	0x3e74e14f	0.23914073
34	0x3e91c807	0.2847292
35	0xbe8ded76	-0.2772023
36	0xbaeede6e	-0.0018224248
37	0xbe98db2c	-0.29854715
38	0xbef865fd	-0.4851531
39	0xbeb47874	-0.35248148
40	0xbe4a4218	-0.19751775
41	0x3d11435a	0.035464622
42	0xbe921ec4	-0.28539097
43	0xbe84071d	-0.25786677
44	0xba8a9b17	-0.0010574785
45	0xbe63430d	-0.22193547
46	0x3d9e44e4	0.077279836
47	0x3d5e7ec5	0.054320116
48	0x3caaa32a	0.020829756
49	0x3e61352b	0.21992938
50	0xbe16a8cc	-0.14712828
51	0xbe0da03b	-0.13830654
52	0xbe5ad0e7	-0.21368752
53	0xbec478b5	-0.38373342
54	0xbda9aeb5	-0.08285276
55	0x3e157d01	0.14598466
56	0x3ea55d77	0.3229787
57	0x3e8041bd	0.25050154
58	0x3e1059a8	0.14096701
59	0x3eb7e28e	0.35915035
60	0xbe3e4cfc	-0.18584055
61	0xbe1a455b	-0.1506552
62	0xbe31a99e	-0.1734986
63	0xbd9aa152	-0.07550301
64	0xbe4815ad	-0.19539519
65	0x3da300b8	0.079591215
66	0x3e2129b0	0.15738559
67	0xbd0da9bb	-0.034585696
68	0x3db9efd1	0.090789445
69	0x3e2b4c44	0.16728312
70	0xbc82e61b	-0.015978863
71	0x3db51573	0.08841982
72	0x3e13e0fe	0.14441296
73	0x3dfcb2f0	0.12338817
74	0x3ea9fc55	0.33200327
75	0x3c99d502	0.018778328
76	0x3d03adcd	0.03214817
77	0xbc91df56	-0.01780669
78	0xbd319f48	-0.043364793
79	0x3e5fa196	0.21838984
80	0xbd9ca6aa	-0.07648976
81	0xbe60cc45	-0.21952923
82	0xbe128b07	-0.14310847
83	0xbdf26863	-0.118363164
84	0xbdb46f51	-0.088102944
85	0xbdf6b44e	-0.12046109
86	0xbe90054f	-0.2812905
87	0xbe7eafa1	-0.24871685
88	0xbe7a38f7	-0.24435793
89	0xbd4d6289	-0.0501428
90	0xbe52e9d6	-0.20597014
91	0xbe2bf9c9	-0.16794504
92	0xbe8972cc	-0.26845396
93	0xbe3143ad	-0.17310973
94	0xbc7e31a6	-0.015514767
95	0xbcd066e2	-0.025439683
96	0x3d607b2d	0.05480497
97	0xbdd8f798	-0.105941
98	0xbd121625	-0.03566565
99	0x3da54ead	0.08071647
100	0xbc9d9a60	-0.01923865
101	0x3c8d8be4	0.01727862
102	0xbe26500f	-0.16241477
103	0xbd16047c	-0.03662537
104	0xbe1ff98b	-0.15622537
105	0xbd2f9b36	-0.04287263
106	0x3dd1d88d	0.10246382
107	0xbd80abcc	-0.06282768
108	0xb8ae2fb0	-8.305849e-05
109	0xbcf9ee5b	-0.030509165
110	0xbdd98dcf	-0.10622751
111	0x3e240d52	0.16020706
112	0x3e09dba0	0.13462687
113	0x3e513e50	0.20433927
114	0x3c16c5a0	0.009202391
115	0x3a4da5b9	0.0007844824
116	0x3c0cb7af	0.008588715
117	0x3ddaf228	0.10690719
118	0x3e0a00eb	0.13476913
119	0xbdc255c2	-0.09489013
120	0xbd3b1695	-0.045675833
121	0xbd5c44f5	-0.0537767
122	0xbc7eed90	-0.015559569
123	0xbe241df2	-0.16027048
124	0xbe8e2e4d	-0.277697
125	0xbcf92f99	-0.030418204
126	0xbc4f16ed	-0.012639743
127	0x3dc904dc	0.0981538
128	0x3d10b100	0.03532505
129	0x3d8a37b2	0.06748904
130	0xbdcd3968	-0.10020715
131	0x3e1d3f14	0.15356094
132	0x3e8de38b	0.27712664
133	0x3ea5089c	0.3223313
134	0x3dc8038e	0.09766303
135	0x3e2c466c	0.16823739
136	0x3ed5cd36	0.41758126
137	0x3ed1f03a	0.4100359
138	0x3ea1c7fc	0.31597888
139	0x3dd089ed	0.10182557
140	0x3c26347b	0.010144348
141	0x3e63c8f2	0.22244623
142	0x3eaa725c	0.33290374
143	0x3e736dfe	0.23772427
144	0xbc2bcbfb	-0.010485644
145	0xbd8bc3fc	-0.068244904
146	0x3e0a9a29	0.1353537
147	0x3d182f3a	0.037154414
148	0x3dfca8a5	0.12336854
149	0xbdb40d59	-0.08791608
150	0x3e8bfde2	0.27342135
151	0x3eb5bb72	0.35494572
152	0x3e1b6037	0.15173422
153	0x3d6cd1c4	0.057817236
154	0xbda764e0	-0.08173537
155	0x3e68d6b0	0.22738147
156	0xbb675d6a	-0.0035303482
157	0xbd9b5a5f	-0.07585596
158	0x3bc6a4aa	0.00606211
159	0x3d406974	0.046975568
160	0xbdcfe6e7	-0.10151463
161	0xbd964fa0	-0.07339406
162	0x3d3e6040	0.04647851
163	0x3e577f19	0.21044578
164	0x3e5dd91f	0.21664856
165	0xbe6db82c	-0.23214787
166	0xbe18484b	-0.14871328
167	0x3df7c399	0.12097854
168	0x3ecf7685	0.4052011
169	0x3dec32f7	0.11533158
170	0xbe74066a	-0.23830572
171	0xbc5e9bab	-0.013586919
172	0x3e3aeadf	0.18253659
173	0x3e2c66bf	0.1683607
174	0x3db323c1	0.08747054
175	0xbd8eb7d6	-0.06968658
176	0x3d723323	0.0591308
177	0xbe4267a6	-0.18984851
178	0xbe862878	-0.2620275
179	0xbe94afe7	-0.29040453
180	0x3cb2667f	0.02177739
181	0xbd558db0	-0.052137077
182	0xbe5a1811	-0.21298243
183	0xbd05d8e1	-0.032677535
184	0xbc8827ab	-0.016620478
185	0xbe2a8e5d	-0.1665587
186	0xbe7c9d7d	-0.24669452
187	0xbe799e20	-0.24376726
188	0xbc6a650b	-0.014306317
189	0x3d85ad3f	0.06527185
190	0xbe8be208	-0.27320886
191	0xbeafff94	-0.34374678
192	0xbc6b64ee	-0.014367325
193	0x3e61f1d7	0.22064911
194	0x3dcd76bf	0.10032415
195	0xbec52217	-0.3850257
196	0xbe1d22b1	-0.15345265
197	0x3c864906	0.016392242
198	0x3d87f18d	0.06637869
199	0xbdd8bf31	-0.10583342
200	0x3dbd4819	0.09242267
201	0x3d68262c	0.05667703
202	0x3cad8339	0.021180736
203	0xbdca74b2	-0.09885539
204	0xbcec7260	-0.028863132
205	0x3cae4856	0.021274727
206	0xbdf46f73	-0.1193532
207	0xbe1f8c64	-0.15580899
208	0xbc06826b	-0.008209805
209	0x3e678c96	0.22612223
210	0xbe8756c7	-0.26433393
211	0xbe8946bd	-0.26811782
212	0xbd747961	-0.05968607
213	0x3ea8d885	0.3297769
214	0x3e8bd8f6	0.27313966
215	0xbe9d0cd8	-0.30673862
216	0xbe9874ca	-0.29776603
217	0x3da35fdc	0.07977268
218	0x3ea5ff34	0.32421267
219	0x3e9003ab	0.28127798
220	0xbe20c3f0	-0.15699744
221	0xbe000738	-0.12502754
222	0x3e6a21e2	0.22864488
223	0x3eafc09c	0.34326637
224	0x3e50c8de	0.20389125
225	0x3b68b9ae	0.0035511064
226	0xbe961ef3	-0.29320487
227	0xbe874509	-0.26419857
228	0x3ec1fbbb	0.37887368
229	0x3e3f7db4	0.18700296
230	0x3d9ec71a	0.07752819
231	0x3d4b3ff8	0.049621552
232	0xbe046db9	-0.12932481
233	0xbea64576	-0.3247487
234	0xbe560662	-0.20900872
235	0x3b395fcf	0.0028285866
236	0x3f0793d9	0.5295997
237	0x3e1edc44	0.15513712
238	0xbf491ba0	-0.7855778
239	0xbf31369b	-0.69223946
240	0xbd99d0d8	-0.07510537
241	0xbdf56bc7	-0.119834475
242	0xbc0a1928	-0.008428849
243	0x3ee7f048	0.45300508
244	0x3ebd9265	0.37025753
245	0x3e07958c	0.13240641
246	0xbe46a651	-0.19399382
247	0x3dc9bdd5	0.09850661
248	0x3ea3f456	0.3202235
249	0x3e49476f	0.19656156
250	0xbd469138	-0.048478335
251	0xbe6b218d	-0.22962017
252	0xbe6e35f1	-0.23262765
253	0x3eb65cac	0.35617578
254	0x3e81af19	0.253289
255	0x3e64d4d8	0.22346818

module.conv1.bias f4 [6]
0	0xbea58df5	-0.32334867
1	0x3f137a6e	0.5760869
2	0xbc847685	-0.016169796
3	0xbdafe1c6	-0.08587985
4	0x3e7c5a77	0.24643885
5	0xbd60eae2	-0.0549115
